model_best.pth (torch, 327407 bytes, 21 tensors)

layer_1.weight f4 [128, 13]
000000 7a 9a 37 3c c1 ce 43 bd f3 9e 44 be 20 a6 87 bb
       0.011206264 -0.047804598 -0.1920126 -0.0041396767
000010 41 0c f8 3b 5d df 52 be ed 90 83 3d f6 4a 05 3e
       0.00756982 -0.20593019 0.06424127 0.13016877
000020 3d df 17 3e db d8 0d 3d 7f c6 e7 bc f2 5e cf bc
       0.14831252 0.034630638 -0.028292893 -0.025313828
000030 43 7b 12 bd 68 c7 04 40 ce bb e6 c0 01 ae 59 c0
       -0.035762083 2.0746708 -7.2104254 -3.4012454
000040 b5 33 ed be 32 2f cb 40 2f b4 db bf 53 a2 32 40
       -0.46328512 6.349511 -1.7164363 2.7911575
000050 67 9f 68 40 aa 7a 8b c0 e0 10 ae be 46 75 34 3f
       3.6347291 -4.3587236 -0.3399725 0.70491445
000060 44 30 ea 3f 62 57 2e 3e cc b1 11 bf 0b d8 0f bf
       1.829598 0.17025521 -0.5691192 -0.5618903
000070 9a 73 90 3f 40 4f 93 bf 01 ae 61 40 29 43 25 c1
       1.1285279 -1.150856 3.5262454 -10.3288965
000080 db 0f c8 40 90 08 2b bf 61 22 18 bf 0c 5d af 3e
       6.2519355 -0.6680994 -0.5942746 0.34250677
000090 8b 5a 95 be 98 76 8c bf 04 da 6a 40 61 ee 1b c0
       -0.2917064 -1.0973692 3.6695566 -2.4364245
0000a0 63 79 80 3f 48 8f 8c be 75 45 9a be 6f 2a 83 40
       1.0037044 -0.27453065 -0.30131117 4.09893
0000b0 51 83 64 c0 40 e9 2b 3f e3 e6 eb bf ef 45 1e c0
       -3.570515 0.67152786 -1.8429836 -2.4730184
0000c0 33 ec e4 be 10 40 31 3f fb 8f d3 bf e5 0f 7f 40
       -0.44711456 0.69238377 -1.6528314 3.9853451
0000d0 b7 b8 da 3f 0a 7c e3 3d af 53 99 3f d8 d0 92 be
       1.708762 0.11107643 1.1978663 -0.2867496
0000e0 51 c8 2b c0 9e 6e 9c 3e f3 75 18 3f cd 8f 97 3e
       -2.6841013 0.30553144 0.59554976 0.296019
0000f0 fa 92 10 3f 58 4e 06 40 99 b2 5e 3e 60 ed d5 3f
       0.5647427 2.0985317 0.21747817 1.6713066
000100 da 12 f0 bf 75 12 82 3d 27 e9 5b bd f8 da 24 bf
       -1.8755753 0.06351177 -0.05368915 -0.6439662
000110 d8 31 9d bd f4 6a 4d 3d c2 2f 31 be 2b e5 0b bd
       -0.076755226 0.050150827 -0.17303374 -0.0341541
000120 d8 2d b1 3e 35 f4 0a 3f 03 7c 65 bd 5b aa 57 bd
       0.34605289 0.5427888 -0.05602647 -0.052652698
000130 64 5b 76 3b 7f c4 44 bd 12 8e be 3f 3d dc 70 c0
       0.0037591094 -0.048038956 1.4887106 -3.7634423
000140 1d d2 34 c0 6a c7 a1 40 5b c1 eb bf 05 35 bd c0
       -2.8253243 5.0555925 -1.8418382 -5.912722
000150 24 84 5a 40 e1 1e 54 40 8b d9 08 bf 7c 5d 58 3f
       3.4143152 3.3143847 -0.53456944 0.84517646
000160 52 78 96 3f d4 af b4 3f 04 6a 05 3f 3f 7d c8 bd
       1.1755469 1.4116158 0.5211489 -0.09789514
000170 94 91 49 be ec da be 3d 84 e3 16 bf be ec e2 bf
       -0.1968444 0.093191 -0.5894091 -1.7728498
000180 3c 87 48 3f b8 f9 2f 40 0f 63 c1 3f af b9 ea bd
       0.7833135 2.7496166 1.5108355 -0.114611976
000190 9b ef 48 3f a6 f4 34 3f ad 44 87 3e 7f a1 0e 3f
       0.7849061 0.70685804 0.26419583 0.55715173
0001a0 d7 6a 8e 40 d6 5b 49 40 c4 ef d7 3e 62 04 82 bf
       4.450542 3.1462302 0.42175114 -1.0157588
0001b0 d1 e4 25 c0 00 21 13 bf d6 03 7a 3f ae 41 46 3e
       -2.5920908 -0.5747223 0.97662103 0.19360992
0001c0 c1 c0 2d 3e 71 bf 24 bf 0d eb 95 be 95 1e 0e 3f
       0.16968061 -0.64354616 -0.29280892 0.55515414
0001d0 29 6d 5b bf 8b 29 83 c0 d2 42 4e 40 eb f1 67 c0
       -0.8571344 -4.098821 3.2228284 -3.6241405
0001e0 6c e6 8f c0 71 d7 0b c0 2e f3 27 40 24 24 55 40
       -4.4968777 -2.1850245 2.6242175 3.3303308
0001f0 5a 20 56 c0 00 5a 5e 40 6c f3 60 bf 0b b9 bb bf
       -3.3457246 3.4742432 -0.8787143 -1.4665846
000200 54 36 07 3f 95 b9 e4 bd 71 32 f9 bf b1 c9 88 c0
       0.52817273 -0.111682095 -1.9468518 -4.2746205
000210 ed 24 f6 3d d4 e1 08 3f 2e f5 41 c0 25 51 3a 40
       0.12018762 0.53469586 -3.0305896 2.9112027
000220 94 a1 26 40 27 90 bb 3f 41 45 88 3e 2f e7 96 3b
       2.603612 1.4653367 0.26615337 0.004605196
000230 ed 10 80 3f 71 c4 7c 3e b7 10 16 c0 92 50 16 c0
       1.0005165 0.24684311 -2.3447702 -2.3486676
000240 64 11 ec 3f 08 f7 45 bf c5 24 47 bf 07 83 7c 40
       1.8442807 -0.77330065 -0.7779048 3.9454973
000250 a2 7a 61 40 99 06 35 c0 8c 3c b3 bf 61 d7 9d bf
       3.52311 -2.8285277 -1.4002852 -1.2331353
000260 de ee 18 40 f0 78 8e 3f 9f fd 88 c0 e5 b6 11 40
       2.3895793 1.1130657 -4.2809596 2.276788
000270 16 e2 b8 bc 20 80 5f 3d f0 ba e1 3d a3 c0 0b 3d
       -0.022568744 0.05456555 0.110219836 0.03411926
000280 d9 6f c1 3c 79 c6 1a be 89 1d 9e 3d a5 0e d3 3c
       0.023612903 -0.15114774 0.07720477 0.025763819
000290 c3 ef d2 bc 2d ab b1 3d af 14 b8 bd 72 37 e6 3b
       -0.025749093 0.08675227 -0.0898832 0.0070256526
0002a0 ad cc 8a bc 8e 12 24 bd fa 9c de 3d 80 da 10 3e
       -0.0169433 -0.040056758 0.10869785 0.14145851
0002b0 e9 bc eb 3e 6a cc 20 be ee 10 a2 3d 43 4b 92 3c
       0.46042565 -0.15702978 0.07913385 0.017858153
0002c0 7b 1c 28 be df 7f 66 bd 0c e0 ca 3d 44 95 e3 3d
       -0.16417114 -0.05627429 0.09906015 0.111124545
0002d0 7f c5 a8 3c bd 6e 39 bd c1 03 be bd c2 af 0b 40
       0.020601986 -0.045271624 -0.0927806 2.1826024
0002e0 33 b4 a7 3e 27 41 9c bf 7c 00 ff be 40 35 d9 3f
       0.3275467 -1.2207383 -0.49805057 1.6969376
0002f0 2a 28 3b 40 c3 d0 48 c0 c6 e6 47 bf a2 4e b2 bf
       2.9243264 -3.1377418 -0.7808651 -1.3930247
000300 cb d7 37 bf 39 6d d3 bf 3f cc 9a 3f 6b e2 5f 3f
       -0.7181365 -1.6517707 1.2093581 0.8745486
000310 18 0d 84 3f 39 52 0e c0 56 06 37 3e 37 98 e5 3f
       1.0316496 -2.2237685 0.1787351 1.7937077
000320 3b 35 27 bf 60 2d d0 bd 23 3b dc bc ec e5 6d 3e
       -0.653156 -0.101649046 -0.026883667 0.2323224
000330 25 2f 84 3f ff bf 3b 3e 8b ba 7f 3f 96 01 3e 3f
       1.0326887 0.1833496 0.99894017 0.7422117
000340 5c 5a 0c bd 4a 0a 92 3d 1c 44 f9 3e d2 89 42 3e
       -0.03426586 0.07130869 0.48684776 0.18997887
000350 be fd 2b be db c0 db bd b0 11 13 3d 33 94 52 be
       -0.16796014 -0.10730144 0.03590554 -0.20564346
000360 9e 9e 81 be 96 e1 38 3d 51 2c 26 bd e7 88 90 bc
       -0.25316328 0.04513701 -0.040569607 -0.017643405
000370 af 26 44 bd 79 0d ae bc 20 9e 71 3c ee 73 13 3f
       -0.047888454 -0.021246659 0.014747173 0.5759877
000380 7f d1 89 bd 81 80 21 bd 2d 9a 8e be 73 11 c7 3d
       -0.06729411 -0.03942919 -0.27852002 0.09720125
000390 87 bd da bc 4d 62 86 be fc ef f0 3c b7 a4 a7 bd
       -0.026701702 -0.26246873 0.029411308 -0.08185714
0003a0 3f 1e a0 3b 28 8c b2 3c 89 dc 39 40 87 69 97 c0
       0.004886418 0.021795347 2.9040854 -4.7316318
0003b0 a5 a1 1d 40 8f 66 39 40 20 41 d2 3f 69 5f 61 3f
       2.462991 2.8968847 1.6426125 0.8803621
0003c0 dd 2c 00 c0 1f f3 89 bf 77 c9 ab 3e b0 c7 f8 bd
       -2.0027382 -1.077732 0.33552143 -0.12147462
0003d0 bd ed 17 bf 0a ef b3 bf 26 1c 9c 3d 79 78 11 3f
       -0.59347135 -1.4057324 0.076225564 0.5682445
0003e0 54 f2 c5 bf 31 e3 a8 bf ee 1e 0e bf a1 cc 81 c0
       -1.5464578 -1.3194333 -0.55515945 -4.056229
0003f0 27 36 35 bd 00 d7 02 41 bb cf 52 be ba 77 a5 3f
       -0.044241097 8.17749 -0.20587055 1.2927163

layer_1.bias f4 [128]
000000 d4 f2 9b be 59 03 00 c0 e4 2e 91 bf 3c cd db bf
       -0.304587 -2.0002043 -1.1342435 -1.7172008
000010 76 ad 49 3f 66 17 89 be 95 f3 16 c0 e7 25 cb bf
       0.78780305 -0.26775664 -2.358617 -1.5870942
000020 ef cf 95 3f 95 53 25 c0 36 fa ce c0 02 e7 13 c0
       1.1704081 -2.5832264 -6.4680433 -2.3109746
000030 4c 51 d5 bd 58 99 7a be 8d 39 d9 3e a9 dc a4 be
       -0.10415897 -0.24472558 0.4242672 -0.321996
000040 35 a6 27 be 44 4a 81 be e8 7a e7 bf 77 bc 46 bf
       -0.16371997 -0.25251973 -1.8084383 -0.77631325
000050 2a 51 cd c0 85 63 97 3d 0d 46 5e be 5d 82 4f 3f
       -6.4161577 0.07392029 -0.2170641 0.81058294
000060 bd 33 8e be a6 f7 a3 be 1f c2 ec be fd 57 e2 be
       -0.27773848 -0.32024878 -0.46241853 -0.44207755
000070 cc 81 00 bf 7e b9 84 c0 17 e4 b1 be 84 f9 92 be
       -0.50198054 -4.147643 -0.3474433 -0.2870599
000080 bf 19 60 c0 89 e6 aa 3b 78 74 86 be 48 a5 70 c0
       -3.5015714 0.00521547 -0.26260734 -3.760088
000090 3e f2 98 bf b5 9e 56 be fc dd 83 be f5 bc 23 bf
       -1.1948926 -0.2095898 -0.25755298 -0.639602
0000a0 1e cf 89 bf 60 9c ac be b2 36 53 bf 3b 86 e6 bd
       -1.0766332 -0.33713055 -0.82505333 -0.11256071
0000b0 c9 5b 87 be ab 51 44 be d8 ef ea be f4 bd af be
       -0.26437214 -0.19171779 -0.4588611 -0.3432461
0000c0 82 16 ce bf bc 56 f6 be 77 e3 21 c0 72 ab 9c be
       -1.6100619 -0.48113048 -2.5295084 -0.30599552
0000d0 3d 80 9e be f2 d4 e9 bf d4 6a b4 be f3 0d 50 c0
       -0.30957213 -1.8268111 -0.35237753 -3.2508514
0000e0 97 69 1b c0 26 87 98 be 7f cf 15 c0 4d 2b 5a c0
       -2.4283197 -0.2979061 -2.3407896 -3.4088929
0000f0 74 21 75 be ae 28 14 c0 ca fe 9e be ab b9 db bf
       -0.23938543 -2.314983 -0.31053764 -1.7166036
000100 6b 77 70 bf 02 92 04 c0 1d 48 a6 be ed a8 a5 bf
       -0.9393222 -2.0714116 -0.32476893 -1.2942177
000110 d2 85 e2 be 36 4b 33 c0 e8 23 80 c0 4f 83 fd be
       -0.44242722 -2.8014655 -4.004383 -0.49514243
000120 fe 1c 7f bf b1 08 7a bf c9 a2 93 be c1 fa 8f be
       -0.99653614 -0.9766951 -0.28835133 -0.28120998
000130 06 f9 41 c0 26 5c 0a c0 a9 0c 66 c0 7a e6 c1 c0
       -3.0308242 -2.1618743 -3.5945227 -6.0593843
000140 d5 bc a6 be 21 2d 9e be f7 94 82 3e 93 be 2c c0
       -0.32565942 -0.30893806 0.25504276 -2.6991317
000150 86 9e 98 bf 42 09 73 be 1a bb cd bf 94 f6 b4 be
       -1.1923378 -0.23734 -1.6072724 -0.35344374
000160 1e e3 d8 bf b3 22 d6 bf fd a6 8b be b0 77 90 3f
       -1.6944311 -1.6729339 -0.2727584 1.1286526
000170 b4 42 a8 bf 64 b0 6f be b9 99 c1 be 62 c6 82 be
       -1.3145356 -0.23407131 -0.37812594 -0.2554198
000180 16 8c d7 bf e0 5a 94 be 71 da 88 be 11 41 81 be
       -1.6839626 -0.28975582 -0.26729158 -0.25244954
000190 71 cc 5e 3f da 44 8a be b4 06 0a be 3f b1 5d c0
       0.870307 -0.27005655 -0.1347912 -3.4639432
0001a0 d6 78 1e c0 d7 0b 1f c0 30 e2 3f bf 1e 6c 55 40
       -2.4761252 -2.4850976 -0.7495451 3.334724
0001b0 0d bf 8e c0 28 4c 4e be 98 67 10 bf 4e 84 1f c0
       -4.4608216 -0.20146239 -0.5640807 -2.4924502
0001c0 74 b4 f6 bf 8b 46 09 bf 47 e0 1b c0 6d bc ad bf
       -1.927382 -0.53623265 -2.4355638 -1.3573128
0001d0 ad 39 74 be fc e7 a4 be 3b f6 70 be 19 b0 36 bf
       -0.23850127 -0.3220824 -0.2353143 -0.71362454
0001e0 93 9d 25 c0 5c 3c 8f bf 5f 2e 8c be 9e b0 e6 be
       -2.5877426 -1.1190295 -0.27379128 -0.45056623
0001f0 dc 4d 06 c0 95 f9 2c c0 26 41 17 c0 85 20 03 c0
       -2.0985022 -2.7027333 -2.3633513 -2.0488598

layer_2.weight f4 [128, 128]
000000 86 fa c8 bc 4c 78 6c c0 fc 39 53 c0 29 04 ad be
       -0.024533521 -3.6948423 -3.300414 -0.33792236
000010 31 dd 90 3c de 94 10 bd e9 08 3a c0 18 e2 16 c0
       0.017683597 -0.03529822 -2.9067938 -2.3575497
000020 8d 58 0e bf 63 7c 11 bf 1c c0 08 bf f6 e4 1d 3e
       -0.5560387 -0.56830424 -0.53418136 0.15419373
000030 e2 1f f5 bd 9e ba 00 3d b7 df 43 3e 3e 67 89 bf
       -0.11968972 0.031427972 0.19128309 -1.0734632
000040 24 d7 d1 3d cc a6 75 3e 13 df 11 40 f5 c5 02 c0
       0.10246113 0.23989409 2.2792404 -2.0433323
000050 a2 e4 97 bf b6 53 c3 3e 1f 34 8a 3c 17 7c 6b 3f
       -1.1866648 0.38149804 0.016870556 0.9198622
000060 29 83 0d be fb ee 2e be e2 a6 0f bc c8 20 81 3d
       -0.13819565 -0.17083351 -0.008767815 0.06305081
000070 bf c5 98 3d 2d 1a 86 40 e8 ad 42 3d 3f 60 08 be
       0.07459592 4.1906953 0.04752913 -0.13317965
000080 3a 71 22 bf 9f 22 13 be 9f a5 11 bd d8 7e de bf
       -0.6345402 -0.14368676 -0.03555834 -1.738246
000090 75 42 51 bf 41 e6 70 bd 68 91 bf bd ac a5 c4 3e
       -0.8174203 -0.058813337 -0.09353906 0.38407648
0000a0 78 24 15 40 b5 aa 81 3e e0 42 30 c0 25 4d c5 bd
       2.3303509 0.25325552 -2.7540817 -0.09633855
0000b0 8d 2d 32 bd c2 bc cb bd 83 3e 9c 3c ae 94 dd bd
       -0.04350047 -0.09948112 0.019072777 -0.10819374
0000c0 17 e4 a8 3e ee 74 9e bd ef 80 f0 bd 81 67 1b bd
       0.3298652 -0.07737146 -0.11743342 -0.037940506
0000d0 4c 24 2e be 65 e3 2a c0 9d 66 02 bd bd 80 81 be
       -0.17006034 -2.670129 -0.03183614 -0.25293532
0000e0 24 56 af bf dd 73 f4 bd 3c 40 92 bf 99 26 02 bf
       -1.3698163 -0.11936162 -1.1425853 -0.50840145
0000f0 5c eb 9a 3d 36 c8 36 be 93 64 53 3c 57 58 83 bf
       0.075644225 -0.17849812 0.012902397 -1.0261334
000100 af 54 7f 3f 85 60 c3 c0 6d 3f 69 3d 94 eb fc 3f
       0.9973859 -6.105532 0.056945253 1.9759393
000110 5a 7d 09 be 7d d5 fc 3f 07 de be 3f 00 8a 7f bc
       -0.13426724 1.9752651 1.4911507 -0.015596867
000120 21 61 ce 3b 7a e9 d1 bc 00 78 98 bd 22 11 42 be
       0.0062981998 -0.025624026 -0.07444763 -0.18951848
000130 fc dd 1a c0 5e d7 a0 3f 75 81 ee c0 06 e7 44 3f
       -2.4197989 1.2565725 -7.453303 0.76915014
000140 b0 a1 16 3c cb 1b 37 3d 95 38 86 c0 98 8a 03 40
       0.009193823 0.04470424 -4.194407 2.055334
000150 14 16 da 3f 3e 3c 35 3d a8 86 9f 3f 77 ab 00 be
       1.7037988 0.044246905 1.2462969 -0.12565409
000160 df e9 56 c0 46 a9 a5 bf f9 92 e8 3d 89 34 ca bf
       -3.3580244 -1.2942283 0.11356158 -1.5797282
000170 a0 80 04 c0 11 a7 67 3d 01 c0 bc 3e 10 af 6f be
       -2.0703506 0.05655581 0.36865237 -0.23406625
000180 85 8f cd 3d ef 4c f2 3b 78 7e 04 3d 41 5b 1c 3e
       0.1003714 0.007394425 0.032347172 0.15269186
000190 0b 4b 44 bf 83 95 4a bd 25 25 90 3d 21 cd c2 bf
       -0.76677006 -0.04945899 0.07038335 -1.521885
0001a0 17 fc 83 be d1 30 96 3f 84 61 d5 be 11 a6 fd bf
       -0.25778267 1.1733648 -0.4167596 -1.9816304
0001b0 0e a2 c2 bf 1d 1f d1 3c 3f 11 5b bd f0 39 9a 3f
       -1.5205705 0.025527531 -0.053483244 1.2048931
0001c0 a2 7d 3d 40 fb 1f f5 bd 5e c1 fe be fc 47 9c bf
       2.960793 -0.119689904 -0.49756902 -1.2209468
0001d0 dd 98 88 3c 55 63 76 bd 61 a1 a8 3d 6e 9e 39 bf
       0.016674453 -0.060153324 0.082339056 -0.7250737
0001e0 90 c8 2d c0 3d 69 e1 3f 1e 3f 25 3b 73 ca 22 be
       -2.7153664 1.7610241 0.0025214623 -0.15897541
0001f0 c8 82 b7 bf 40 f3 65 c0 87 0b a0 bf 30 f8 3f be
       -1.4336786 -3.5929718 -1.2503518 -0.1874702
000200 c4 34 31 3d 54 72 00 3d 8c fc ca ba dd d3 77 3d
       0.04326321 0.03135903 -0.0015486642 0.060504783
000210 72 64 33 bd c9 46 96 3e 13 fb 9a be 9e 45 09 3c
       -0.043796964 0.2935088 -0.3026968 0.008378414
000220 8e 0c a4 bd c1 e8 b9 bd 1f 03 a0 bc 96 e1 ce bc
       -0.08010207 -0.090775974 -0.019532738 -0.025254052
000230 ec 06 40 be a3 eb 66 be 07 3e d6 3d fa 06 ed bc
       -0.1875264 -0.22550826 0.104610495 -0.02893399
000240 fe b3 3a be e3 35 49 be 72 56 9c bd 23 03 af 3d
       -0.18232724 -0.19649462 -0.07633676 0.0854552
000250 18 6b ed bc 7e 65 dc 3d 61 eb b9 3e a5 0f 90 bc
       -0.02898173 0.107615456 0.36312392 -0.017585585
000260 32 5d c9 bd 70 f7 d0 bd 49 4f 16 3e 4e 3b 98 be
       -0.09832229 -0.10203445 0.14678682 -0.29732746
000270 38 d9 91 3b a5 cd 28 3d bb 83 80 bb 34 1b 16 3e
       0.0044509433 0.041211743 -0.0039219535 0.14658815
000280 cc a7 b8 3c 4c 8b 98 bd 4d 52 59 be dc 55 27 bd
       0.02254095 -0.07448444 -0.21222802 -0.040853366
000290 ae c9 44 be 16 91 fd bc c4 31 17 be f1 67 0d bf
       -0.1921756 -0.030952971 -0.14765078 -0.55236727
0002a0 4f 16 3f bc e7 1f 7e be cb 15 0a bd f8 3e 91 be
       -0.011663034 -0.24816857 -0.03371219 -0.28368354
0002b0 3e 9d ab bd f8 e4 4e bc 9d 5b 65 be f8 1e b0 3c
       -0.08379601 -0.012627833 -0.22398229 0.021499142
0002c0 dc 63 8b bd f8 2d 7c be 8d 6f 3a be 97 e7 2e bd
       -0.06806156 -0.2462691 -0.18206616 -0.04270133
0002d0 01 c3 89 be 37 f7 77 3e 2e 10 e6 3c e9 6c 0c bd
       -0.2690659 0.24215399 0.028083887 -0.034283552
0002e0 fb e5 c8 bd 3f 11 09 be 27 46 3a be 0c 0f a3 be
       -0.0980949 -0.13385485 -0.18190823 -0.31847417
0002f0 3f 2d 2e 3f 27 a5 8a bd a6 aa 5c be fb c4 f1 bb
       0.6803779 -0.067697816 -0.21549472 -0.007378218
000300 fb 50 29 3e fe 8f 8f 3e f6 36 8d be 7f 17 c6 bd
       0.16534798 0.28039545 -0.27580994 -0.0967245
000310 f3 5d dd be 94 97 36 3e 5c 1e 84 3e a1 80 00 be
       -0.4323574 0.1783126 0.25804412 -0.12549068
000320 59 d0 0f 3d 7a 2b 24 3d 80 6f 4d 3e df 7e 8e be
       0.035110805 0.040080525 0.20062065 -0.2783117
000330 22 57 0d bd 81 23 13 3e 2a f8 17 3d 00 41 0b be
       -0.034506924 0.14369012 0.037101902 -0.13599014
000340 f6 1a 45 be 69 47 6c 3e 30 49 ac bd 92 1c 89 3c
       -0.19248566 0.23074116 -0.08412397 0.016737256
000350 36 4a d9 bd e0 02 69 be 7f 96 39 bd ac df e2 bc
       -0.10609858 -0.22755003 -0.04530954 -0.027694546
000360 a2 29 7a be 09 fc 89 3e 1a 72 e2 3d 5f d2 b5 bd
       -0.24429944 0.269501 0.110569194 -0.08878016
000370 31 c2 70 3c b2 15 03 3f f5 73 85 3c ad bd 37 3e
       0.014694736 0.5120498 0.016290644 0.1794345
000380 fb 8a 3b 3d 6a 88 42 3e 9f 36 97 3e 13 7c 68 3e
       0.04578684 0.1899735 0.2953386 0.2270358
000390 fe 12 76 bd 91 05 94 be da 16 a6 3c 15 d4 fb bd
       -0.060076706 -0.28910497 0.020274568 -0.12296311
0003a0 22 56 e8 3b d5 36 e6 bc 95 00 63 3e f3 c9 a5 3d
       0.007090346 -0.028102318 0.22168191 0.080951594
0003b0 66 7a 85 be 32 06 46 3e b5 9b 2e 3d cd ba 35 bd
       -0.26069945 0.19338301 0.042628963 -0.0443676
0003c0 ac b2 3c 3c 64 27 80 3e fc ab b3 3d fc 8d a8 bc
       0.011517208 0.25030053 0.08773038 -0.020575516
0003d0 30 68 e3 3e 08 11 7a 3d 9a cc 90 3d 37 79 ca be
       0.44415426 0.0610514 0.07070275 -0.39545605
0003e0 23 f3 40 be 49 d2 13 be df 5d 63 3c 1d ea 73 3e
       -0.1884275 -0.14435686 0.013877361 0.23819776
0003f0 e5 bd 00 be 88 0e c6 be 7a e8 5f bd a5 4a 0c be
       -0.12572439 -0.3868296 -0.054665066 -0.1370035

layer_2.bias f4 [128]
000000 bb ee bb 3f d5 a3 e9 bf 8a 0a cf bf ce 4b cd bf
       1.468223 -1.8253123 -1.6175091 -1.6038759
000010 e5 7d 9e be 65 25 d0 bf e3 e9 21 c0 f5 85 09 c0
       -0.30955425 -1.6261412 -2.5299003 -2.148801
000020 bf b9 e8 3f 84 5c 27 c0 e9 af e1 bf 98 be cd c0
       1.8181685 -2.6150217 -1.7631809 -6.429516
000030 fb 1b 0b c1 c1 0a aa c0 2e e1 ee bf fa 5e d1 bf
       -8.694331 -5.3138127 -1.8662469 -1.635711
000040 64 44 ae c0 53 9e 8b 40 5a 9a 8b c0 bf 9c d8 bf
       -5.4458485 4.3630767 -4.3625917 -1.6922835
000050 eb da 0f c1 c8 e3 26 bf f9 46 d4 bf e6 71 78 c0
       -8.990947 -0.65191317 -1.6584159 -3.8819518
000060 e0 89 cf c0 9b 64 15 40 5a 3e 92 bf 9a e4 d1 bf
       -6.4855804 2.3342655 -1.1425278 -1.6397889
000070 4f ae e2 bf f3 e5 c9 bf 0f da d9 bf 1c 39 c8 be
       -1.7709445 -1.57733 -1.7019671 -0.3910607
000080 a7 e9 98 c0 9b 39 ff bf 96 42 e9 bf 8e 2a ef 3f
       -4.778522 -1.9939455 -1.8223445 1.8684862
000090 51 c4 c6 bf 72 2b 14 c0 4a 9a d6 bf 94 de f4 bf
       -1.5528661 -2.3151517 -1.6765835 -1.9130425
0000a0 87 f1 14 c0 a6 f9 ce bf 59 eb 59 bf 5a 48 c1 bf
       -2.3272417 -1.6169937 -0.8512474 -1.5100205
0000b0 51 4e 7f c0 f4 64 ad c0 a7 36 de bf 75 4e e9 bf
       -3.989155 -5.4185734 -1.7360429 -1.8227068
0000c0 06 9c d2 bf 09 1b 36 bd 91 75 f9 bf 52 35 d9 bf
       -1.6453865 -0.044459376 -1.9489003 -1.6969397
0000d0 98 da 0f c0 c5 a4 0d c0 c2 34 b9 3f 09 57 e1 bf
       -2.247717 -2.2131817 1.4469225 -1.7604686
0000e0 23 46 ea bf 8c 6a a0 bf 3c 37 d6 c0 95 6a 35 bf
       -1.8302654 -1.2532516 -6.6942425 -0.70865756
0000f0 60 c0 c8 c0 e0 20 b2 bf 4b 7b 37 3f 7f fe ee bf
       -6.2734833 -1.3916283 0.71672505 -1.8671416
000100 63 3a 2f c0 34 e5 1a 40 2d a1 fe c0 d4 ca 7c 40
       -2.7379386 2.4202394 -7.957175 3.9498796
000110 18 1e 33 c0 08 0b db bf b1 bf f3 3f 08 13 19 c0
       -2.7987118 -1.7112741 1.9042875 -2.3917866
000120 fa 06 87 c0 9b ac d5 bf f6 df ab c0 0e 23 99 3f
       -4.2196016 -1.66933 -5.371089 1.1963823
000130 ae b4 2c c0 62 a9 d9 bf 24 42 0f c0 08 f1 05 c0
       -2.6985278 -1.7004817 -2.238412 -2.0928364
000140 4b a3 d8 bf a8 90 06 c0 31 ef 06 c1 13 c4 a3 c0
       -1.6924833 -2.102579 -8.433396 -5.117685
000150 1d 81 f4 bf bf 66 24 c0 f4 4b fe bf 89 fc cf bf
       -1.9101902 -2.5687711 -1.9866929 -1.6248943
000160 86 ad d0 bf 44 4a da bf 95 cf ee bf 90 7b 19 c0
       -1.6302955 -1.7053914 -1.8657099 -2.3981667
000170 60 7d c2 bf 65 68 d3 bf b6 60 bf bf b6 e6 bb c0
       -1.5194511 -1.6516234 -1.4951389 -5.871913
000180 64 f9 00 c0 45 c2 e3 bf 72 38 05 c0 50 cf f8 bf
       -2.0152216 -1.7793661 -2.0815701 -1.9438267
000190 c5 c0 b4 bf 04 0b 97 40 be a7 9f bf 44 94 d8 bf
       -1.4121329 4.7200947 -1.2473066 -1.6920247
0001a0 bc 6d e7 c0 fb 3f cd bf f6 d4 04 c0 79 00 e8 bf
       -7.2321453 -1.603515 -2.075498 -1.8125144
0001b0 69 52 ce bf 10 17 03 c0 7f ad e7 bf 84 df 0d 3f
       -1.61189 -2.0482826 -1.8099822 0.5541918
0001c0 01 72 df bf 84 92 d5 bf d0 09 d7 bf 54 e2 d6 bf
       -1.7456666 -1.6685338 -1.679987 -1.678782
0001d0 41 6f cf bf 46 c9 e5 bf ea 98 76 c0 5f 60 ba c0
       -1.6205827 -1.7952049 -3.8530831 -5.824264
0001e0 d3 a7 09 c0 51 08 b8 c0 b9 b6 bb bf f7 cc 59 c0
       -2.1508682 -5.751015 -1.4665138 -3.403135
0001f0 cb c8 0d c0 d5 95 1e 40 9b 70 59 c0 2b 74 83 3e
       -2.2153804 2.477895 -3.397498 0.25674567

layer_3.weight f4 [64, 128]
000000 77 c2 8b bc d9 21 5c 3e 28 67 81 3e 4a b1 61 3e
       -0.017060502 0.21497287 0.25274014 0.22040287
000010 ac ca 08 3e 83 94 f4 3d 3f 35 09 3b 9a 04 79 3e
       0.13358563 0.11942389 0.0020936278 0.24318162
000020 de c8 f4 3c 71 29 b8 3d 23 56 17 be f3 29 4a bc
       0.029880937 0.08992279 -0.14778952 -0.012339103
000030 24 4b 91 3e 10 cf 9d 3c 3e 3a f1 bc cc 20 5c 3c
       0.2837764 0.019263774 -0.029446717 0.013435554
000040 4d 02 80 bb 19 ca d5 3d bd be 83 bd af 12 27 3e
       -0.0039065243 0.10438938 -0.06432865 0.16315721
000050 8c fd fd 3d ab 5f 2a 3c ef e8 aa 3c 72 28 1c 3d
       0.12401876 0.010398786 0.020863025 0.03812451
000060 ee 6b f2 3c 3b 99 10 bd 8f 2b ad bd 5d 0a 18 bd
       0.02959248 -0.035302382 -0.08455574 -0.03711926
000070 6e 5d 42 3e 86 13 04 3e f6 4e 81 bc c8 c6 20 3e
       0.18980953 0.12898073 -0.015784722 0.15700829
000080 13 0e d8 bd 4a d8 ba 3c b8 4f 78 3e e5 ab 3b be
       -0.105495594 0.022808213 0.2424916 -0.18327291
000090 ff 70 c6 3e cc 5d 2f 3e 0a 77 8f bd e9 72 98 3e
       0.38758084 0.17125624 -0.07005127 0.2977517
0000a0 b7 82 48 3d 19 df 60 3d cd 70 5c bd a7 95 04 be
       0.048952784 0.054900263 -0.053818513 -0.12947713
0000b0 9e 4e 1d be 4b 63 4d 3d 83 c4 cb 3d 76 16 26 3e
       -0.15362021 0.05014352 0.09949591 0.16219506
0000c0 9b 61 4f 3e bf 1f ec bd 93 98 3f 3e 3c d7 87 3e
       0.20252077 -0.115294926 0.18710546 0.26531398
0000d0 4b 27 40 3e 7d 56 f8 3d 60 18 9f bd 8b 40 26 3e
       0.18764989 0.12125871 -0.07768321 0.16235559
0000e0 8f 89 25 3e e3 ea f3 3d ed 2d 66 bd 26 2b 40 bd
       0.16165756 0.119100355 -0.056196142 -0.04691615
0000f0 c2 9b 04 be ae a2 b4 3d 28 1e 83 3d e6 ca a7 3d
       -0.12950042 0.08820091 0.06402236 0.08192997
000100 19 0a 2c 3e 10 5c db bd bb 32 d0 3d 4f f9 09 bd
       0.16800727 -0.10710919 0.10165926 -0.033685025
000110 13 c3 fc bc 45 aa 29 3e 34 d1 96 3c 25 eb af bd
       -0.030854737 0.16568859 0.018410303 -0.08589772
000120 fd ed d7 3d a2 33 83 bd c3 16 5c 3e 66 e6 14 3e
       0.105434395 -0.064063326 0.21493058 0.14541015
000130 1a fd 14 be 3f ab 42 be 25 8f 68 bd d6 52 8c 3e
       -0.14549676 -0.19010638 -0.05677714 0.2740695
000140 c0 a5 8c be 5a 8e 50 3e 72 9a 81 3d be 5c 1c 3d
       -0.27470207 0.20366803 0.06328286 0.038174383
000150 79 f4 45 bd 44 5f 0c 3d d3 fd c9 bd 9f 17 44 3e
       -0.04832885 0.03427054 -0.09862866 0.19149636
000160 7c fd de 3d cf b2 c1 bc af 54 3a 3e 61 e4 01 3e
       0.10888192 -0.023644833 0.18196367 0.12684776
000170 f4 c1 bd 3e 91 7f 8a be c4 08 b6 3e fb db 97 3d
       0.37062037 -0.2705045 0.35553563 0.07415005
000180 ed 9d 14 be e0 60 59 be 1d a9 46 3d fa 4f 32 3e
       -0.14513369 -0.21228361 0.048501123 0.17413321
000190 66 2c ba 3d 2e c9 3a bd e8 d3 c3 3d 39 3d 30 bd
       0.090904996 -0.045602016 0.09561902 -0.043027136
0001a0 3c aa 44 bd 41 88 b8 bc a9 bb d4 bc 5a 25 7a 3d
       -0.04801391 -0.022525908 -0.02596839 0.061070777
0001b0 4b 30 89 be f1 4f 15 bc e7 10 1d 3e 92 36 92 3d
       -0.26794657 -0.009113298 0.15338479 0.07139315
0001c0 85 05 0c 3e aa 9b 04 be cc 5f c1 3d 2d 00 d3 3e
       0.1367398 -0.12950006 0.094421 0.41211072
0001d0 6a 32 71 ba f0 56 4b bd 70 f7 43 3d 67 05 27 3d
       -0.00092009327 -0.049643457 0.047843397 0.040776636
0001e0 b8 ba 34 be 79 31 d5 3c e6 88 5e bd b5 b1 83 3e
       -0.17649353 0.026024567 -0.054329775 0.25721517
0001f0 f1 da 4a 3d 3e b2 32 be a6 45 b5 3d 2e 72 60 be
       0.049525205 -0.17450806 0.08851175 -0.21918556
000200 11 24 2a bd dc 6d eb 3d 67 9f 68 be e4 25 ed 3e
       -0.0415383 0.114955634 -0.22717057 0.4631797
000210 6f db 1e be e3 91 b8 bd 4d 95 01 be 17 95 9f bd
       -0.15513395 -0.09012201 -0.1265461 -0.077921085
000220 33 dc 07 bd 17 0e 3b be ee 02 48 be 9a a0 ac bc
       -0.033168983 -0.18267094 -0.19532368 -0.021072675
000230 59 c7 47 be 12 c2 69 be bd a2 d9 39 b3 85 76 3d
       -0.19509639 -0.22827938 0.00041510715 0.0601861
000240 a8 5e 5e 3d 98 f9 ae bb 7e 67 82 3d 59 ed e2 bd
       0.05428949 -0.0053398125 0.06367396 -0.11080427
000250 8a 1e 87 3d 1c 3d 2a 3d 96 3c 7b 3e a9 41 9d bd
       0.06597622 0.041562185 0.2453483 -0.07678539
000260 24 bf 84 bc be a1 41 bd 41 a6 89 3e 04 74 87 bd
       -0.016204424 -0.04727339 0.26884654 -0.06613925
000270 d1 71 e6 bd 57 3a 8b be ec 40 fe bd 23 66 aa bb
       -0.112521775 -0.27192947 -0.124147266 -0.005200164
000280 09 54 37 3c 4a f5 b4 bd 2a f4 ec bd 84 94 01 bc
       0.011189469 -0.08835848 -0.11570008 -0.007908944
000290 e3 b2 4e 3d 6f 34 55 3d 50 8c 93 be 96 32 8f 3e
       0.05046357 0.052051958 -0.28817987 0.27968282
0002a0 fc 3e 88 bd 71 27 3a be e1 6e 5c 3d aa c8 15 be
       -0.06652638 -0.18179108 0.05381668 -0.14627329
0002b0 95 4a 1d 3c 99 31 18 3e 87 ea e3 bd c4 d6 af bd
       0.009600301 0.1486267 -0.11128717 -0.08585885
0002c0 0b eb 01 be 9a b2 39 3e 55 54 d7 bb fb 74 1d bd
       -0.12687318 0.18134537 -0.0065713325 -0.03844164
0002d0 ac e4 25 bd 03 d2 cf bd 1b 2e ec bd ac 05 0e be
       -0.04050128 -0.101474784 -0.115322314 -0.13869351
0002e0 be 66 c5 3d 42 8b d4 bc de 4c bd 3d fa 8f 94 bb
       0.09638737 -0.02594531 0.09243177 -0.004533765
0002f0 1f 66 4c 3c cd 43 b2 bd 59 ef 6f be 91 fd 79 3c
       0.012475519 -0.08704338 -0.23431148 0.015258209
000300 40 43 4d 3d d0 c6 af bd 8c d4 3f bd e5 2e a6 bc
       0.050112963 -0.08582842 -0.04683356 -0.020286033
000310 02 cc b2 3c d3 e0 03 be 92 36 c8 bd 17 14 4e be
       0.021825794 -0.12878732 -0.097760335 -0.20124851
000320 bb 50 4e 3d 62 67 c1 bd fa 4e f8 3d 30 79 69 3e
       0.05036996 -0.09443547 0.121244386 0.22800136
000330 60 17 4f bd 05 8a ac be 6d c9 63 3e 84 c4 82 3e
       -0.0505594 -0.3369905 0.22244807 0.25540555
000340 33 c9 b2 3d 61 ee e3 3d 45 14 3e 3d 5d 36 27 bd
       0.08729782 0.111294515 0.04640605 -0.04082333
000350 c4 1b b6 bd 1f 91 95 3c 41 b7 44 be 0b fa bb bd
       -0.088920146 0.018257676 -0.19210531 -0.09178551
000360 18 10 56 bd 5f ad 15 bd 65 8f 6e 3e 27 84 da 3d
       -0.052261442 -0.036542293 0.23296888 0.10669737
000370 a2 39 4b bd d3 b2 46 3e 66 19 fc 3c 89 39 97 bd
       -0.04961551 0.19404154 0.03077383 -0.07384021
000380 b8 99 d7 3a 8c 0e 98 3d 56 7f 26 be d1 fe 6a be
       0.001644901 0.074246496 -0.16259512 -0.22948767
000390 f2 11 bc 3d 6e 58 90 3d 50 e6 88 bd c0 14 95 3e
       0.0918311 0.070481166 -0.066845536 0.29117393
0003a0 00 6d 16 bd 74 93 aa be b4 2a 51 be 33 74 4c be
       -0.036725044 -0.33315623 -0.20426446 -0.19966201
0003b0 a4 6f 6a be 64 f1 2f be d1 d5 e6 3c 15 50 a1 3d
       -0.2289415 -0.17181927 0.028178127 0.078766026
0003c0 eb ac 7d 3d 74 05 04 be c2 d0 b5 3a 67 2e 06 be
       0.061932486 -0.12892705 0.0013871419 -0.13103639
0003d0 a5 67 93 3e 14 3b 34 3d bd 8b 1b be 07 c4 a3 3b
       0.28790012 0.044001654 -0.15190025 0.0049977335
0003e0 49 55 03 be ed 64 bc bd af 71 e4 3d a8 83 8e 3e
       -0.12825502 -0.091989376 0.11154496 0.2783482
0003f0 f6 97 c3 bd df c0 36 bc 8c 0b 11 3e 1b 81 3b be
       -0.095504686 -0.0111543825 0.14164561 -0.18310969

layer_3.bias f4 [64]
000000 4e 14 49 c0 27 d1 3c c0 3f e2 33 41 b1 05 11 c1
       -3.1418643 -2.9502656 11.242736 -9.0638895
000010 07 e7 38 c0 4b de 47 c0 e0 b3 21 c0 76 12 26 40
       -2.8891008 -3.1229427 -2.5266037 2.5948768
000020 7f 61 58 c0 3c 3c 4b c0 47 09 02 41 e2 45 5e c0
       -3.3809507 -3.1755514 8.127265 -3.4730153
000030 39 9f 47 c0 bb 05 50 c0 52 54 9e c0 ff cf 39 c0
       -3.1190932 -3.2503498 -4.947793 -2.90332
000040 0d 34 52 c0 54 f6 35 41 70 bf 21 c0 4f 92 45 c0
       -3.284427 11.372639 -2.5273094 -3.087055
000050 e6 54 d1 40 8b 46 3d c0 42 31 3f c0 4d dd 43 c1
       6.5416136 -2.9574306 -2.9873815 -12.2415285
000060 51 63 37 c0 9b 27 60 c0 d9 d7 31 c0 bc 1e 44 c0
       -2.8654368 -3.5024173 -2.7787993 -3.0643759
000070 42 52 57 c0 76 29 5a c0 ec 5e 36 c0 d9 ea 53 c0
       -3.3643956 -3.4087806 -2.8495436 -3.311209
000080 9c 13 37 c0 4a ab 40 c0 eb bd 42 c0 21 69 47 c0
       -2.8605719 -3.0104547 -3.0428417 -3.1157916
000090 72 be 41 c0 14 2d 35 c0 da 20 4f c0 fe 1f 09 c1
       -3.0272489 -2.8308764 -3.23638 -8.570311
0000a0 3b d7 44 c0 96 12 2e c0 09 e5 63 c0 6f b6 5a c0
       -3.0756366 -2.7198844 -3.5608542 -3.4173849
0000b0 2e d0 bb c0 4e 43 52 c0 1b b8 f6 bf 77 4f 4a c0
       -5.8691626 -3.285358 -1.9274935 -3.1611001
0000c0 1f 96 4e c0 c2 7e b6 bf 73 dd 2f c0 19 04 4c c0
       -3.2279127 -1.4257433 -2.7478912 -3.18775
0000d0 90 f0 54 c0 7c c2 56 c0 cd c4 47 c0 9b b0 c0 3f
       -3.3271828 -3.3556204 -3.1213868 1.5053896
0000e0 93 ba 4a c0 d9 40 53 c0 06 c0 42 c0 88 bd 41 c0
       -3.1676376 -3.300833 -3.0429702 -3.027193
0000f0 31 21 27 c1 30 25 40 c0 5f 4b 4b c0 48 e4 8e c0
       -10.445603 -3.0022697 -3.1764753 -4.4653664

layer_4.weight f4 [1, 64]
000000 ec cf 3f bd 5a 3c 60 bb 54 3f 82 3e e6 5c 51 bd
       -0.04682915 -0.003421566 0.2543894 -0.051113985
000010 8f 26 2b 3c b0 ed 12 bb 09 ad 31 bc 8b 33 83 3d
       0.010446205 -0.0022419505 -0.010844477 0.064063154
000020 ff be fb bc 35 a7 10 3b 8b d4 b3 3d 9c f9 9c 3c
       -0.030730722 0.002207232 0.08780774 0.019161992
000030 e6 6b 11 3a 24 99 95 bb f3 7f b7 3a e8 8d 1d 3b
       0.0005547389 -0.004565375 0.0013999924 0.0024040882
000040 e9 14 cb 3b 4d 96 c4 3e 69 1c 4f 3a 66 1f 72 b9
       0.006197561 0.3839592 0.0007900657 -0.00023090615
000050 ca 62 aa 3d b5 9a 80 3b 4e 6f 1c 3b b5 1a b2 be
       0.08319624 0.0039246925 0.0023870054 -0.34786
000060 30 3c 2e ba 92 c0 7b 3b 64 f0 25 bc 4c a1 07 bb
       -0.0006646542 0.0038414341 -0.010128114 -0.0020695506
000070 6e aa 8c bc 70 e8 71 bb b8 28 97 3b cd e7 4e 3c
       -0.017171111 -0.0036912225 0.0046130084 0.012628508
000080 90 84 24 3a 78 08 ac bb 0c 85 98 3b 9b 66 e9 3b
       0.0006275857 -0.005250033 0.0046545323 0.007122827
000090 25 67 d2 ba d2 19 15 3a df 62 e5 ba 98 db 9f bd
       -0.0016052468 0.00056877465 -0.0017500779 -0.07805556
0000a0 b9 5f ca 3a 28 63 06 bb 41 60 c8 3b d7 58 80 3b
       0.0015439905 -0.002050588 0.00611499 0.0039168405
0000b0 88 a8 21 3c 09 89 6a 3c 99 16 6e bb 1c 91 79 3b
       0.009866841 0.014314898 -0.0036329387 0.0038080877
0000c0 58 cc 31 ba ba 1e 58 3b 50 5e 95 bc 34 2b 41 3c
       -0.0006782464 0.0032977299 -0.018233448 0.011790086
0000d0 de cb 6e 3b 6e 79 79 39 ec ea 7b bc 6f 9e a6 bb
       0.0036437432 0.00023791727 -0.015375834 -0.0050848047
0000e0 26 6d e1 3b 00 da 83 3c 7d 62 df 3b e1 f1 e5 bb
       0.0068794666 0.016095161 0.0068171606 -0.0070173596
0000f0 6c d8 a9 bd 0e 35 03 3a 1d d1 38 3b 90 c1 aa ba
       -0.08293232 0.0005005159 0.0028200813 -0.0013027657

exp_avg f4 [128, 13]
000000 82 f3 c6 39 d0 06 80 39 58 8a 99 b8 00 5e 19 b9
       0.0003794693 0.00024419138 -7.321377e-05 -0.00014626235
000010 e3 e5 83 37 e0 9a 5d 37 cb 30 96 37 c4 66 11 b9
       1.5723466e-05 1.3208686e-05 1.7904114e-05 -0.00013866561
000020 6c 0c 76 b8 9c e3 31 37 1e e8 7e 39 b3 04 83 38
       -5.866254e-05 1.0603017e-05 0.00024309798 6.247442e-05
000030 8a a9 5d 38 7f c5 60 3c e0 f9 e4 3a 51 d0 78 bc
       5.28484e-05 0.013718962 0.0017469488 -0.015186385
000040 16 6a 84 bc ca 1a 49 bc 6c 87 6f bc c5 61 5d bc
       -0.016163867 -0.012274453 -0.014619689 -0.01351208
000050 ad d9 8a bc 40 3e 6a bc fb 8a 0b bc a7 da b1 b9
       -0.016949499 -0.014297068 -0.008517022 -0.0003392298
000060 3a 3b 3f bc ee a5 80 bc e6 35 00 bc 94 e3 46 bc
       -0.011671836 -0.015704121 -0.00782535 -0.01213922
000070 df 1f 44 bc 84 ad 33 bc ab 97 39 bc 2e 83 2d bc
       -0.011970489 -0.010966662 -0.011327664 -0.010590358
000080 4c fa 1a bc e1 72 3b bc 7a 4d 40 bc 36 a0 90 bb
       -0.0094590895 -0.0114409635 -0.011737222 -0.00441363
000090 1f 86 cf bb d5 a8 fd bb 5f 6b a2 bb cf 8b a8 bb
       -0.006333127 -0.0077410736 -0.0049566473 -0.0051436196
0000a0 75 77 96 bb 30 d4 0b b8 9e 66 0e 3a 97 be 86 ba
       -0.004591877 -3.3337798e-05 0.0005432161 -0.0010280189
0000b0 94 f0 af b7 ef 85 23 b9 f8 e5 30 3a c9 34 25 b9
       -2.0973654e-05 -0.00015594786 0.0006748135 -0.0001575529
0000c0 d2 ff 48 3b ae 67 98 ba c8 86 7c bb dd f6 a6 ba
       0.003067006 -0.0011627579 -0.0038532484 -0.0012738366
0000d0 f6 d4 9e bb dc 08 5d 38 45 02 c7 ba 71 24 02 bb
       -0.0048471643 5.2698757e-05 -0.0015183171 -0.0019858147
0000e0 6d 05 a1 ba 2e 07 a9 ba 93 c4 9c 38 16 81 fa ba
       -0.0012284942 -0.0012895816 7.4752745e-05 -0.0019111957
0000f0 e8 54 f6 ba 5c 9b a8 bb b5 db 4f 3c da 14 ef b9
       -0.0018793615 -0.0051454734 0.01268666 -0.00045601168
000100 8b 36 c0 ba 93 68 85 b8 29 26 19 b9 ce a4 b9 b8
       -0.0014664693 -6.361413e-05 -0.00014605433 -8.852185e-05
000110 73 bb 7f b8 60 ef 89 b8 17 6f d7 b8 ba 19 ba b8
       -6.0971313e-05 -6.577256e-05 -0.00010272691 -8.873963e-05
000120 bb 32 9f b8 1e dd b0 b8 38 99 5a b9 98 7e 35 36
       -7.59116e-05 -8.43352e-05 -0.00020847179 2.704479e-06
000130 25 f1 40 b9 93 eb 74 b9 49 09 6e 3c 93 9e ea 3b
       -0.0001840038 -0.00023357412 0.014528581 0.007160017
000140 22 69 13 bc 53 b4 31 bc 2c f5 8d bb 2e d7 cb bb
       -0.008997234 -0.010846215 -0.0043322053 -0.00622072
000150 81 37 ab bb c9 47 37 bc 26 57 0d bc df 2d 0b bc
       -0.0052251224 -0.0111865485 -0.008626735 -0.008494823
000160 5e 25 57 bb 05 72 86 bb 9e 6f cd bb 9b 1f 88 bc
       -0.003282867 -0.0041029477 -0.0062694093 -0.016616633
000170 44 a7 21 bc b6 c1 96 b8 c6 7f 89 39 bd 3a b3 ba
       -0.009866539 -7.188639e-05 0.00026225875 -0.0013674122
000180 81 5e 8e b9 cd 16 4d ba 3f 77 9b 39 ea d4 39 ba
       -0.00027154761 -0.0007823527 0.0002965275 -0.00070889166
000190 f3 7e d2 bb c9 a1 1c bb 9d 24 b9 bb 52 6d a6 bb
       -0.006423825 -0.0023900142 -0.0056501166 -0.00507895
0001a0 b4 23 1a bb 22 2f 76 bc 36 2e 04 bd e0 5c fb bc
       -0.0023519816 -0.015025886 -0.032270633 -0.030683935
0001b0 40 ba 04 bd 66 42 10 bd d5 1a 13 bd 3b dd ff bc
       -0.032404184 -0.035219572 -0.03591426 -0.03123342
0001c0 f9 fc ff bc 20 c1 8c 3c 47 ca a6 3c 55 08 07 3b
       -0.031248556 0.017181933 0.020360125 0.0020604332
0001d0 b0 8a ef 3b 17 70 2f 3b dd 17 67 3b 26 59 17 3b
       0.007310234 0.0026769692 0.0035262026 0.0023093908
0001e0 5b bc 0b 3b 57 cd fd 3a 54 4c 4e 3b a2 fc 5c 3b
       0.0021321985 0.0019363564 0.00314786 0.0033719917
0001f0 27 9e 00 3b 5b f9 22 3b 3b 1c a6 bb f4 f1 7a bb
       0.0019625516 0.0024867866 -0.0050692833 -0.0038291188
000200 b8 f7 df 3b b6 ec 95 3b ec d1 f5 3b b5 92 9c 3c
       0.0068349503 0.0045753373 0.0075018313 0.019112924
000210 16 a2 91 3c e0 12 86 3c 5a 4a b0 3c e6 bf 92 3c
       0.017777484 0.016366422 0.021519829 0.01791377
000220 2e 2c 95 3c bf ee 83 3c f6 74 94 3c b0 81 b9 3b
       0.018209543 0.016105054 0.018122178 0.005661212
000230 58 4d a5 3b 56 9f ba 3c ae e7 97 3c aa 78 e7 bb
       0.0050446205 0.022781055 0.01854309 -0.007063945
000240 08 34 28 bc 88 3c e8 ba 5d 1b f0 ba 33 01 ae bb
       -0.0102663115 -0.0017718235 -0.0018318702 -0.0053102016
000250 0a cd 2a bb 71 ac 83 bb f0 b1 80 ba 1a f7 22 bb
       -0.0026062154 -0.0040183594 -0.0009818655 -0.0024866522
000260 16 f7 19 3b d3 4f 6c 3b 28 17 dd ba e6 14 0a 3b
       0.0023493222 0.003605832 -0.0016867863 0.0021069585
000270 9f 8e 6a 39 76 06 61 b9 de 22 f5 b9 c0 05 f0 b9
       0.0002236911 -0.00021460079 -0.0004675602 -0.0004578065
000280 f4 68 df b9 69 6d e3 b9 8e dd c5 b9 2f 83 f4 b9
       -0.0004261207 -0.0004337833 -0.0003773984 -0.00046637046
000290 38 1b f6 b9 8a f8 c5 b9 bb 6e 86 37 2a f6 15 ba
       -0.00046941056 -0.00037759944 1.6025608e-05 -0.000572058
0002a0 8b 49 20 ba 8c 82 49 ba 4e c5 26 ba b2 73 5d b6
       -0.00061144744 -0.00076869945 -0.0006361798 -3.299891e-06
0002b0 d3 5e 9a 38 ab 07 47 b9 05 eb ab b8 1c d8 ab b8
       7.3609546e-05 -0.00018980975 -8.197691e-05 -8.194169e-05
0002c0 01 f6 dc 38 21 9a 0a b8 67 39 89 b8 1d 2c 3a ba
       0.00010536239 -3.3045308e-05 -6.543361e-05 -0.00071019103
0002d0 97 b9 da b8 62 ca 0d 38 7c 58 2d ba cc ec a8 ba
       -0.00010429619 3.3805503e-05 -0.00066126115 -0.0012887954
0002e0 58 ff 84 3b 70 86 83 3b 61 a6 cd 3a b1 5d 78 3b
       0.0040587597 0.004013829 0.0015689844 0.0037897641
0002f0 15 f1 84 3b 46 9c 9f 3b d0 2e 64 3b d4 27 74 3b
       0.0040570595 0.004870924 0.0034817941 0.0037255185
000300 ba 41 36 3b 63 ef 5a 3b 48 71 6f 3b 0f f6 fb 3b
       0.0027810172 0.0033406846 0.0036536027 0.0076892446
000310 59 55 a8 bb b7 f0 50 bc ac 2d 48 bc 5d db 1a bc
       -0.0051371274 -0.012752703 -0.01221792 -0.009451714
000320 66 76 34 bc 15 64 ff bb 93 f9 5c bc ea ae 40 bc
       -0.0110145565 -0.007793913 -0.0134872375 -0.011760453
000330 5e d0 2b bc a2 b3 f8 bb aa 6c d4 bb 98 47 1c bc
       -0.01048669 -0.0075897733 -0.0064826803 -0.009538554
000340 61 1a c8 37 fd d9 6c 39 c8 37 a5 39 69 59 a6 39
       2.3854142e-05 0.00022587921 0.00031512813 0.00031728603
000350 ea e4 a1 39 d2 06 a0 39 05 ad 96 39 7f d9 a3 39
       0.00030878867 0.0003052266 0.0002873914 0.0003125183
000360 7b 7a a6 39 e7 fa 68 38 d5 b4 5e 38 f6 92 8f 39
       0.00031753242 5.554678e-05 5.3097338e-05 0.0002738458
000370 ec fc 43 39 e5 76 87 b9 ab 2d 06 b9 dd 74 00 39
       0.0001869087 -0.0002583779 -0.00012796248 0.00012250566
000380 9f 10 23 39 ee c7 4c 38 92 10 82 38 d9 b6 4d 38
       0.00015551083 4.882359e-05 6.2019695e-05 4.90461e-05
000390 d0 c7 24 39 2d bf d8 38 3f 38 d0 b7 47 66 22 b8
       0.00015714695 0.00010335292 -2.4821724e-05 -3.8719063e-05
0003a0 0c 92 1e 38 aa 04 04 38 f0 cb be bb e5 3e 85 bb
       3.7806152e-05 3.1475596e-05 -0.005822651 -0.0040663355
0003b0 bd c5 0f bb 20 a5 fb ba 15 8e 2f bb c6 8a 0d bb
       -0.002193793 -0.0019198991 -0.0026787568 -0.0021597608
0003c0 4f 90 de ba 29 fa 25 bb cb e8 1c bb c3 14 e3 39
       -0.0016980263 -0.002532611 -0.0023942466 0.00043312283
0003d0 6d f7 b5 3a e8 a9 a1 ba 61 db c0 ba 43 27 53 bb
       0.0013882943 -0.0012333961 -0.0014713818 -0.0032219447
0003e0 e7 3b 56 bc 6e 1d 99 ba d2 09 18 bb 4b 84 cf bb
       -0.013075805 -0.0011681744 -0.0023199213 -0.006332909
0003f0 2c 2d e5 ba fc 7c 5b bb 95 20 3e ba 70 0e 60 bb
       -0.0017484776 -0.0033491245 -0.000725278 -0.0034188293

exp_avg_sq f4 [128, 13]
000000 0d b6 42 36 99 fc 17 36 60 e7 33 36 d3 12 2f 36
       2.901422e-06 2.2647785e-06 2.6807757e-06 2.608799e-06
000010 3f 5c 37 36 f9 b0 38 36 3d c0 31 36 5c 36 2f 36
       2.732282e-06 2.7521148e-06 2.6486953e-06 2.6108673e-06
000020 57 a5 34 36 f6 39 fd 35 f6 df c4 35 e2 94 37 36
       2.691833e-06 1.8866838e-06 1.4668319e-06 2.7355786e-06
000030 9b 75 2b 36 8d 57 1e 3b 81 09 8e 3a 03 8f cf 3a
       2.554944e-06 0.002416107 0.0010836573 0.0015835467
000040 bc 25 d7 3a 91 73 a9 3a e6 54 c3 3a c9 48 b4 3a
       0.0016414444 0.0012928118 0.0014902621 0.0013754602
000050 66 93 da 3a 2d eb c4 3a bc 75 ea 3a 39 ab ca 3a
       0.0016676008 0.0015023701 0.0017887871 0.0015462405
000060 60 9b 04 3b 4c 58 1b 3b 94 d5 10 3b a7 fc 1d 3a
       0.0020234212 0.0023703752 0.0022099959 0.0006026723
000070 41 47 aa 3a 4b 75 b0 3a 5b f0 8a 3a 0b a3 98 3a
       0.0012991206 0.001346269 0.0010600196 0.001164527
000080 c4 11 78 3a 47 30 b2 3a d3 89 a7 3a b9 56 af 3a
       0.00094630965 0.001359471 0.0012782164 0.0013377286
000090 fd 13 db 39 1e 09 c1 3a 8f f6 d8 3a 1f 96 b1 3a
       0.00041785827 0.0014727449 0.0016552972 0.0013548768
0000a0 e3 c1 8b 3a cb 47 94 3a 8c 75 95 3a 7c e9 8d 3a
       0.0010662641 0.00113129 0.001140283 0.001082703
0000b0 b7 3e 8d 3a b6 74 83 3a 7a 3e 90 3a 05 bc 92 3a
       0.0010776137 0.0010029289 0.0011004948 0.001119495
0000c0 5f 19 6d 3a 6f 0f d6 3a 7b 3e dd 3a c3 82 cf 3a
       0.0009044613 0.0016331504 0.0016879583 0.0015831817
0000d0 d4 c5 51 3b 5a 7f 22 3b 29 8d 97 3b 46 fe 93 3b
       0.0032008784 0.0024795146 0.004624982 0.0045163957
0000e0 0f b1 84 3b 3b 59 93 3b d6 f0 93 3b 0d b6 98 3b
       0.0040494273 0.004496721 0.004514794 0.004660374
0000f0 b9 c5 91 3b f8 9e db 3a bb 41 0a 3b 70 8a 4b 3b
       0.004448619 0.001675575 0.0021096307 0.0031057857
000100 7b 3f 40 3b e2 1f 68 36 92 40 20 36 aa c1 43 36
       0.0029334712 3.4589252e-06 2.3879443e-06 2.9169992e-06
000110 b2 81 43 36 37 19 37 36 0f 10 42 36 8b a1 31 36
       2.9132757e-06 2.7283802e-06 2.89176e-06 2.6469086e-06
000120 9b 57 45 36 4c 57 42 36 bc 6c 0f 36 e6 23 d0 35
       2.940628e-06 2.8959066e-06 2.1371952e-06 1.5507655e-06
000130 0f a9 46 36 fc 45 4f 36 1e b2 ae 3a e4 50 c9 39
       2.9602704e-06 3.088614e-06 0.001332823 0.00038397976
000140 a3 44 53 3a de 91 6b 3a 83 14 01 3a e7 1a 2b 3a
       0.0008059239 0.00089862745 0.0004924016 0.0006527141
000150 0f 84 1e 3a ec ee 7c 3a bb ff 42 3a ea 34 43 3a
       0.00060469 0.0009648639 0.00074386195 0.00074465445
000160 83 04 34 3a 02 51 49 3a 2f 6b 69 3a 78 46 40 3b
       0.00068671274 0.00076796126 0.0008904216 0.0029338878
000170 74 35 32 3b 4c b5 ea 3a ff a0 dd 3a 4e f3 11 3b
       0.0027192505 0.0017906814 0.0016908942 0.0022270265
000180 36 c8 03 3b 26 b3 fa 3a 30 aa d8 3a 9f 08 fb 3a
       0.0020108349 0.0019126877 0.0016530212 0.001915235
000190 bd a5 28 3b 00 51 f1 3a 40 9f 1c 3b f0 19 22 3b
       0.0025733553 0.0018410981 0.0023898631 0.0024734698
0001a0 a9 15 96 3d c5 ea b1 3d 53 da 9f 3d 5b 0c 99 3d
       0.0732835 0.08687357 0.07805314 0.0747306
0001b0 7b c9 b2 3d 3d e1 a8 3d 60 ff a4 3d d6 35 99 3d
       0.087298356 0.08246086 0.080565214 0.074809715
0001c0 7a 7f a2 3d e1 05 3e 3d 98 90 30 3d 4d ab 85 3d
       0.079344705 0.046392325 0.043106645 0.06526814
0001d0 51 67 65 3d 4c 76 04 3b 1d 90 c9 3a eb af d0 3a
       0.056006733 0.0020212112 0.0015378032 0.0015921568
0001e0 b4 a8 cc 3a 61 14 dc 3a ec 2e e0 3a 86 71 d6 3a
       0.0015614242 0.0016790741 0.0017103828 0.0016360737
0001f0 df 4b c5 3a 2a df d3 3a 01 3e a1 3a a0 c7 8c 3a
       0.0015052519 0.001616453 0.0012301804 0.0010740645
000200 19 5c 06 3b 12 da 0a 3b a6 b7 33 3c f0 be d9 3b
       0.0020501672 0.002118711 0.010969078 0.006645076
000210 2c db 33 3c 70 3a 33 3c 36 44 14 3c 8b ed 2b 3c
       0.010977548 0.010939226 0.009049466 0.010493646
000220 ca 88 1e 3c 22 f6 39 3c 92 6e 2c 3c ef 85 c8 3b
       0.009676168 0.011350187 0.010524409 0.0061194818
000230 06 1d 14 3c eb ff 3a 3c b2 70 25 3c b0 4b 7b 3c
       0.009040123 0.011413555 0.010097669 0.0153378695
000240 c9 ec d9 3b 24 9b 12 3c cd 1b 0e 3c b2 6e e2 3b
       0.0066505414 0.008948121 0.00867362 0.0069101686
000250 b7 b4 0c 3c e6 65 ee 3b 39 b4 18 3c 1d 44 0b 3c
       0.008588008 0.007275331 0.009320312 0.008500126
000260 02 13 f6 3b 9a a6 db 3b 86 af 0b 3c 6a fa 18 3c
       0.00750959 0.00670321 0.008525735 0.009337047
000270 9d 38 08 36 ec 66 b5 35 97 78 dd 35 35 ac dc 35
       2.0298532e-06 1.3515505e-06 1.6500879e-06 1.6441396e-06
000280 03 fd d1 35 1a e8 df 35 bd 5e d2 35 09 5d de 35
       1.564535e-06 1.6682345e-06 1.5673792e-06 1.6567366e-06
000290 06 31 dc 35 83 a9 a3 35 be dc 80 35 17 15 db 35
       1.6405545e-06 1.2193781e-06 9.600988e-07 1.632291e-06
0002a0 4f 52 d8 35 dd 64 3b 36 7b 9d d5 35 bc 40 0f 36
       1.6117209e-06 2.7923882e-06 1.591557e-06 2.134634e-06
0002b0 6a 47 0f 36 17 a6 fe 35 33 ed 0d 36 f6 73 f7 35
       2.135023e-06 1.8972813e-06 2.1148705e-06 1.8436683e-06
0002c0 ee f5 11 36 4d ca 0d 36 90 c2 e8 35 fb ba 9a 35
       2.1749834e-06 2.1128392e-06 1.7341972e-06 1.1528313e-06
0002d0 a3 ff 0e 36 35 0d 1f 36 e5 19 31 3b 4f 75 22 3b
       2.130845e-06 2.3700534e-06 0.002702349 0.002478916
0002e0 a6 88 0f 3b cd a4 0a 3b 11 d6 20 3b 40 43 22 3b
       0.0021901517 0.0021155358 0.0024541656 0.0024759322
0002f0 fa c3 25 3b 72 52 08 3b 35 25 10 3b bd f5 cb 3a
       0.0025293813 0.0020801094 0.0021994833 0.0015560907
000300 c9 98 c3 3a 94 c6 2c 3b 7d d0 35 3b 71 55 17 3b
       0.0014922853 0.002636348 0.0027742677 0.0023091699
000310 47 2b e4 3a c4 26 21 3b cb dc 28 3b fc 89 fe 3a
       0.0017407917 0.0024589757 0.0025766368 0.0019419785
000320 83 89 0e 3b b7 5e cb 3a 9c 44 2c 3b e1 75 16 3b
       0.0021749444 0.0015515898 0.0026286012 0.0022958445
000330 13 6c 1e 3b e8 a6 85 3b e9 d4 03 3b 61 38 16 3b
       0.0024173304 0.0040787347 0.0020115918 0.0022921788
000340 8b 53 53 36 ec 46 2b 36 b8 58 2f 36 45 0c 2d 36
       3.1490079e-06 2.5522268e-06 2.6128673e-06 2.578615e-06
000350 26 56 32 36 5e 41 32 36 2e 05 2e 36 46 9c 2d 36
       2.6574212e-06 2.6562116e-06 2.5931035e-06 2.5869972e-06
000360 b4 22 2e 36 ee a9 e5 35 dd 4d fc 35 76 45 2d 36
       2.594822e-06 1.7111286e-06 1.8798124e-06 2.581944e-06
000370 67 29 1d 36 07 00 44 36 77 32 15 36 89 4c 4f 36
       2.3418922e-06 2.9206292e-06 2.2232105e-06 3.0889953e-06
000380 2c 9b 4d 36 63 12 46 36 26 09 4d 36 61 09 34 36
       3.0637702e-06 2.9515002e-06 3.0552706e-06 2.682755e-06
000390 6b 16 4c 36 67 1a 4e 36 53 ef 0a 36 90 be fa 35
       3.0411418e-06 3.071176e-06 2.0702907e-06 1.8681912e-06
0003a0 0e 7c 57 36 2f a2 60 36 b1 87 c2 39 82 a8 42 39
       3.2109706e-06 3.3473004e-06 0.0003710366 0.00018564056
0003b0 73 2b a9 39 32 e6 b9 39 77 eb 66 39 d8 d5 79 39
       0.00032266564 0.0003545746 0.00022022227 0.00023826153
0003c0 4a e7 57 39 8e 8c cd 39 c8 6a 9a 39 f2 6e d2 39
       0.0002059016 0.00039205368 0.00029452727 0.00040136982
0003d0 be 09 30 39 6c 8b 76 39 5d 24 98 39 ac a0 47 3c
       0.00016788297 0.00023512327 0.00029018792 0.012184303
0003e0 d3 57 e3 3b ee d6 00 3c 5a ab ff 3b d4 1a ec 3b
       0.0069379597 0.007863743 0.007802409 0.0072053466
0003f0 9a 76 02 3c be 3f 15 3c 7f 64 05 3c 30 87 fb 3b
       0.007962847 0.009109436 0.008141636 0.0076760277

exp_avg f4 [128]
000000 84 6e f0 b9 93 3d 6a bc b8 01 5e 3c 3c 23 22 3b
       -0.00045858708 -0.014296907 0.0135502145 0.002474024
000010 a4 fc 15 bc 3e 94 17 b9 ee 42 5d bc 54 38 c3 39
       -0.0091544725 -0.00014455707 -0.013504727 0.00037235266
000020 0f 15 41 bc 8c 1e de bb 4e a4 8c bb 59 80 92 3b
       -0.011784806 -0.006778544 -0.0042920476 0.0044708666
000030 d4 c8 a4 b9 17 5b 84 3a 3a 58 26 bc 65 a0 7c bc
       -0.00031430146 0.0010097948 -0.010152871 -0.0154191
000040 27 00 0e b9 cf 2b 02 38 c1 2c 79 3a 55 c2 c0 3c
       -0.00013542232 3.1035215e-05 0.0009505265 0.023530165
000050 44 29 b7 bb d7 f1 9a bc 1b ec 14 39 2d fe b1 bc
       -0.005589636 -0.018914146 0.00014202336 -0.021727646
000060 07 f7 9c b8 19 61 88 b8 98 ce 99 b8 26 81 51 b9
       -7.484672e-05 -6.503071e-05 -7.3340896e-05 -0.00019979905
000070 ab 68 aa 38 2e d7 0b 3c 3d 11 83 b8 1a df 09 b9
       8.1257276e-05 0.00853519 -6.249778e-05 -0.0001314845
000080 a0 c0 62 3a 53 4e 23 bb 0e 0a fa b8 68 95 11 bc
       0.0008649919 -0.002491851 -0.00011922802 -0.008885719
000090 a1 e7 91 3b 20 2f e6 39 59 2e ac b8 a8 4a 32 b9
       0.004452661 0.0004390413 -8.210232e-05 -0.00017003214
0000a0 88 4e 05 3b 1d fa 8c 38 50 56 d4 3b 9f 86 74 b8
       0.0020340998 6.7223074e-05 0.006480016 -5.829951e-05
0000b0 a3 f9 d8 37 9b 72 4a b7 78 10 21 b7 3c 28 a9 38
       2.5865453e-05 -1.2066822e-05 -9.600182e-06 8.066042e-05
0000c0 58 5a 25 3c 4a 95 1e b9 49 ee 80 37 3c 30 e8 b9
       0.01009234 -0.00015123669 1.536975e-05 -0.00044286426
0000d0 5f 56 aa b7 f3 e0 4c bc 1e 90 10 39 8d 44 77 3c
       -2.0305799e-05 -0.012504804 0.00013786598 0.015092027
0000e0 00 d4 85 ba 2b cd ed b8 4d 0c 0a bb 3c 41 d2 3b
       -0.0010210276 -0.00011339256 -0.002106446 0.006416468
0000f0 da aa ba 39 8c a2 b5 3b 49 30 db 38 21 bf e6 3a
       0.0003560398 0.0055430587 0.000104517276 0.0017604568
000100 cc f9 b5 3a 26 9a 75 3c 04 42 15 39 71 a9 70 3c
       0.0013883649 0.014990365 0.0001423434 0.0146888355
000110 3c 98 a6 b7 97 d6 07 3b 88 2f a5 3b fa a4 4e b9
       -1.9859632e-05 0.002072727 0.0050410666 -0.0001970715
000120 ab bf 1e bb 3e 34 69 b9 ac 09 81 b8 bb e5 b6 b7
       -0.002422313 -0.00022240073 -6.153001e-05 -2.1803067e-05
000130 dc 57 13 bc 43 42 ce bb 89 bc 44 bb 16 3a 16 ba
       -0.008993115 -0.00629452 -0.0030019602 -0.00057307014
000140 a4 0b 64 39 2e f8 f8 38 35 f0 57 bc d0 b8 35 bc
       0.00021748111 0.000118717886 -0.013179828 -0.011091426
000150 85 48 f1 bb fd 37 ac 38 ee 16 96 bc c0 ba 34 b9
       -0.0073633813 8.212028e-05 -0.01832148 -0.00017235707
000160 83 22 68 ba 33 bb 2d 3c be 84 9c b9 53 15 99 bc
       -0.00088552403 0.010603714 -0.0002985354 -0.018686926
000170 01 fb 29 3a 63 3d 81 39 ab 58 f9 bb 33 95 f0 39
       0.0006484241 0.00024650534 -0.007609447 0.0004588753
000180 1c c7 02 3b 6a 67 7f b9 4f 50 07 b9 e3 32 25 b8
       0.0019955104 -0.0002435722 -0.0001290452 -3.9386458e-05
000190 29 68 6a 3c 95 da b2 38 e9 31 7e 39 de 18 70 bb
       0.01430706 8.5284155e-05 0.0002424192 -0.0036635916
0001a0 8a c1 99 b9 ec 34 cc 3b a1 bb ac 3a 6a 8f 54 bd
       -0.00029326632 0.0062318947 0.0013178476 -0.051894583
0001b0 79 cd 37 bc d5 20 86 3a 0b 61 8f b9 05 42 44 ba
       -0.011218422 0.0010233173 -0.00027347388 -0.00074866443
0001c0 26 08 6c 3b f1 da ca b9 92 bb 4d 3b 64 10 b0 bb
       0.00360156 -0.00038691566 0.0031392318 -0.0053730477
0001d0 1b 15 08 3a 69 c0 bc 39 21 03 e0 b8 f8 ec e2 3a
       0.0005191133 0.0003600151 -0.00010681735 0.0017313054
0001e0 fb 72 12 39 ef 1a 0c 3b 76 c4 ef b7 68 9b 20 b9
       0.00013966479 0.0021378358 -2.8582504e-05 -0.00015316682
0001f0 c2 4a 14 bc 4b a0 f2 3b de 88 03 bc 75 ac 02 3c
       -0.009051027 0.0074043623 -0.008028237 0.007975687
