pretrained.pth (torch, 821999 bytes, 21 tensors)

layer_1.weight f4 [128, 13]
000000 b3 34 e9 be 8c 2e 25 3d 78 7e 59 be d9 87 53 be
       -0.4554802 0.040327594 -0.2123965 -0.2065729
000010 79 23 92 3b b7 9f 2c 3e b8 b0 c5 be 15 a9 60 be
       0.004459795 0.16857801 -0.38611388 -0.219395
000020 12 e7 13 3e 5e 40 00 be 04 7b aa 3e 67 8b 68 3d
       0.14443615 -0.12524554 0.33296978 0.05677357
000030 1f b8 b6 3e 3c b2 68 3f 1b 19 82 3c 5c a9 a9 3d
       0.35687348 0.90896964 0.015881112 0.08284256
000040 e3 bd a7 be ea 52 1d 3e 42 6c 2b be e4 87 19 3e
       -0.3276206 0.1536366 -0.16740516 0.14993244
000050 a2 f7 7b bd 9e 1a 1d bd cc 08 1f bf 56 b5 fd 3b
       -0.061515458 -0.038355462 -0.621228 0.007742564
000060 b5 cf 82 3e 67 fd 00 3e 70 0c 28 bd 27 47 45 be
       0.25549093 0.12596665 -0.041027486 -0.19265424
000070 20 4b 83 3e 2a a1 4b be b7 56 70 3e a4 38 75 bf
       0.25643253 -0.19885698 0.23470579 -0.9578955
000080 e6 8d 7f 3f cd 43 24 be ca 48 e9 3d 03 ed d0 3d
       0.99825895 -0.16041489 0.113908365 0.102014564
000090 00 88 70 3e 35 24 ac be bf 5e 00 3f c0 c0 b1 be
       0.2348938 -0.33621374 0.5014457 -0.3471737
0000a0 69 ed 51 3e d2 19 24 bf d2 5a 4e be 0d 6b a1 3e
       0.20500721 -0.641019 -0.20151833 0.31526986
0000b0 d2 3a 14 be 86 78 41 3f 6b 57 9e be 25 e9 b2 be
       -0.14475563 0.7557453 -0.3092607 -0.349435
0000c0 34 41 e9 3e 07 fa 9e 3e 00 9a 21 3e b5 e8 0d 3f
       0.4555756 0.3105013 0.15781403 0.5543321
0000d0 5d 31 af 3e 4e a4 8b 3e 7b 50 b3 3e d6 a5 de 3d
       0.3421735 0.27273792 0.3502234 0.108714744
0000e0 23 79 1d bf 3d 25 90 be e0 82 85 3c 60 ef bc 3e
       -0.61512965 -0.2815341 0.016297758 0.3690138
0000f0 9f 1b 1b bd 47 be 97 3e ad 1d ff 3d 60 09 58 be
       -0.03786814 0.29637358 0.12456832 -0.21097326
000100 36 19 87 bd ab 43 45 be 2a b8 1b 3f a7 34 92 be
       -0.065966055 -0.19264095 0.6082789 -0.28555796
000110 b0 33 2a 3c 3f 39 f4 3e 6e 93 4e bd ea a3 3b be
       0.0103883 0.47699925 -0.05043357 -0.18324247
000120 8b cf 47 bf fc 49 c7 3e c4 96 a6 3d cc 83 5f 3e
       -0.7805106 0.38923633 0.08134225 0.2182762
000130 e0 20 87 be 6f 61 02 3d ae 42 1a 3f ae eb 86 be
       -0.2639227 0.0318312 0.60257995 -0.26351684
000140 dc 53 cb bc a1 c1 92 3e ff 9f 0d bf f3 2d c3 be
       -0.02482026 0.28663352 -0.5532226 -0.38120994
000150 b6 0a 14 be ed 39 27 3f 33 00 1c 3e 6b 26 67 bb
       -0.14457211 0.6532276 0.15234451 -0.0035270702
000160 57 c6 e9 be 34 09 96 bd 93 1c d0 bd 7e 73 5e 3b
       -0.45659134 -0.07325974 -0.101617 0.003394335
000170 1d de 70 3e 9b 47 c8 bc fd 34 ab 3e 83 a7 c4 be
       0.2352223 -0.024448207 0.33438864 -0.3840905
000180 b6 7c 68 bd 02 c6 5b 3e 5d e3 bd 3e c3 24 d9 3d
       -0.05675956 0.21462253 0.37087527 0.10602715
000190 46 7e fe 3e ba c3 26 3f 58 85 ac bd 6c ea 77 be
       0.49705714 0.65142405 -0.08423871 -0.24210519
0001a0 cc 5d 27 3f 81 ed a3 3e 76 d0 49 3e 61 33 12 3d
       0.653775 0.3201714 0.19708428 0.03569353
0001b0 29 6b 1f 3e ea 0e 32 be d1 4f 77 bd 82 0e 24 be
       0.15568222 -0.17388502 -0.060378853 -0.1602116
0001c0 66 a4 2c be 79 ee 30 3c 72 3b 87 3e 2b 6c fd 3e
       -0.16859588 0.010799044 0.2641254 0.49496588
0001d0 59 33 27 3e 0b 55 bf bd 1c 24 1d 3e 56 64 0a bf
       0.16328181 -0.093423925 0.15345806 -0.5405935
0001e0 e3 c7 7f bf 21 1c 28 3e b6 55 46 3f 55 15 6d 3e
       -0.9991438 0.1641698 0.77474535 0.23152669
0001f0 be f7 10 bf 29 48 da 3e e3 3d dc be 1e 6c 95 bd
       -0.56628025 0.4263318 -0.43015966 -0.07296012
000200 c9 c8 0b 3f 68 07 16 be 42 8c 6d 3e 66 9d fa 3d
       0.5460325 -0.14651263 0.23198035 0.122370526
000210 4c fd 9c 3d 1f 86 fd bd 7a ce eb be 77 5e 0b 3f
       0.076655 -0.12379097 -0.46055967 0.54441017
000220 2a e5 57 3e 68 5a 5b 3e 45 86 a2 bd 37 1b 29 3f
       0.21083513 0.21421206 -0.07935766 0.6605715
000230 0a 8d 9b bf 46 cb 66 3e 56 b1 02 be 93 a2 97 bd
       -1.2152417 0.2253848 -0.12762961 -0.074040554
000240 79 df 70 3e 03 d2 9a be ed ab fa bd 6d 4a c0 3e
       0.23522748 -0.3023835 -0.122398235 0.37556782
000250 49 d0 94 3e 6a 36 bf be b3 1d a8 bd 8a a3 3a bd
       0.2906516 -0.37346202 -0.0820879 -0.04556612
000260 3b 54 a3 3e 9f 50 87 3e 10 e8 d4 be 25 08 a5 3d
       0.319002 0.26428697 -0.415833 0.08058194
000270 b2 36 4a 3e 45 ac cf 3d 7a cd 92 3e 63 2b 8d 3e
       0.19747427 0.1014028 0.2867239 0.27572164
000280 04 68 41 3e 27 ca 88 3d 58 0d 27 3d 46 1e 5a be
       0.18887335 0.066791825 0.04078421 -0.21300611
000290 f9 e4 d3 be 71 ac 63 be ed 86 1d be 99 58 9a be
       -0.4138563 -0.2223375 -0.15383501 -0.3014572
0002a0 f9 28 e2 3d 64 ce b2 3d 3e 03 93 be 86 6f e9 bd
       0.11042971 0.08730772 -0.2871341 -0.113982245
0002b0 fd 79 0b 3e a7 09 29 3f f6 5b c4 3c 8f e1 16 3f
       0.13620754 0.66030353 0.023969632 0.58937925
0002c0 d4 93 19 bf 49 c1 f9 be 1f 0f ee bd d8 31 98 be
       -0.5999119 -0.48780277 -0.11623978 -0.29725528
0002d0 5c e5 18 bf 30 05 11 3f 0e a3 f6 3a 40 9c dd 3e
       -0.59724975 0.5664854 0.0018816905 0.43283272
0002e0 b1 6d 3b be 35 b5 2f be a7 0d 41 3d 0d 19 79 be
       -0.18303563 -0.17158969 0.04713216 -0.24325962
0002f0 0c 18 00 3f 12 85 9c be 7c 4d 6f bd c2 e0 00 bf
       0.5003669 -0.30570275 -0.058423504 -0.50342953
000300 89 0a 57 3e af 04 2f be ca 4f 5d 3e a1 12 50 3c
       0.21000113 -0.1709163 0.21612468 0.012699754
000310 95 24 32 bd 7a b8 27 be 73 af 90 3d ae 2a 9c 3c
       -0.04349192 -0.16378966 0.07064714 0.01906332
000320 28 b7 21 bf 37 34 c8 3e 0d 9e cb be e7 8f fb 3e
       -0.631701 0.39102337 -0.3976902 0.49133226
000330 06 eb a8 3e 4e ac d7 3c 22 a6 08 3e ff 39 57 3e
       0.3299181 0.026327278 0.13344625 0.21018218
000340 86 b5 3d be 7d af 9f 3c 94 5b dd 3d 4d 16 08 3d
       -0.18526277 0.019492859 0.10808483 0.033224393
000350 a3 67 9a 3e 1e 3b a5 3e 79 22 bf be ed ce 51 be
       0.30157194 0.32271665 -0.37330988 -0.20489092
000360 dd 92 8c be de 7b 96 3d 7c d4 91 3d a7 3f d9 3c
       -0.27455798 0.073478445 0.07120606 0.02651961
000370 33 32 ca bd ac 68 62 be 6b 9e f6 3d 88 94 fa 3d
       -0.09872856 -0.22110242 0.120419346 0.12235361
000380 ae 43 53 bd 17 37 c6 3e 9f d7 a3 3d 0a fb fa 3c
       -0.051578216 0.38713905 0.08000111 0.030637283
000390 68 21 c0 be eb c6 cc be 6a a8 aa 3e 3a ee d1 be
       -0.37525487 -0.39995512 0.33331615 -0.41002065
0003a0 4d 54 d4 bd 99 45 6f 3d c3 d4 0a 3e 54 77 f8 be
       -0.103676416 0.058415983 0.13557725 -0.4852854
0003b0 1d 7f 08 3f db 73 02 3e 52 b7 37 3f 4b 47 80 be
       0.5331896 0.12739508 0.717641 -0.25054392
0003c0 1b 3e b7 bd 6d 19 0a be fc d5 89 be e1 af c2 be
       -0.089473926 -0.13486262 -0.2692107 -0.3802481
0003d0 88 3c 5b be 8d 86 2a bf f3 62 55 3e 2b 0d a7 bd
       -0.2140981 -0.6661156 0.20838527 -0.081568085
0003e0 af 6d aa be e1 6c a1 be 25 c2 be 3d 93 ed b9 bd
       -0.33286807 -0.3152838 0.09314374 -0.09078517
0003f0 0f 2f ad 3e 9e 41 8b 3e 89 a9 9f be 2a 2b 17 3c
       0.33824965 0.271985 -0.31184033 0.0092266

layer_1.bias f4 [128]
000000 c6 cf 0b 3d e4 90 74 be 95 06 e7 bd 25 d6 c2 be
       0.034133695 -0.23883396 -0.11280552 -0.38054004
000010 d3 1c d9 3e 79 ca 97 3e de 7f ad 3d 3d da 6e be
       0.42404804 0.29646662 0.08471654 -0.23325439
000020 74 7d b3 3e da 9e c9 be d9 ae 0a bf 6f 5a a6 bd
       0.3505665 -0.39379007 -0.54173046 -0.081227176
000030 ec bb 07 3e fa 41 64 3c c5 10 a3 3e 13 ab c3 bd
       0.1325528 0.013931746 0.31848732 -0.09554114
000040 4b 08 5b 3e 85 b3 84 3e 06 2e 97 bd 4c f6 00 bf
       0.21389882 0.25918213 -0.07381825 -0.5037582
000050 8a af 6f bf 6d 3c cb bb d0 2b ca 3e 1a 33 c5 3d
       -0.93627226 -0.0062022717 0.3948655 0.096288875
000060 ae 5c 3b be 0d 95 85 be 5c 29 96 be 32 d5 8e bd
       -0.18297073 -0.2609028 -0.2932843 -0.069742575
000070 5a 3c 62 3e 1f 0a 0f be 26 f2 47 3b 01 2b bf be
       0.22093335 -0.13968705 0.0030509322 -0.37337497
000080 ce f3 cf be 44 53 13 3e ad 99 6c be 3e 2e 0d bd
       -0.40615696 0.14387232 -0.23105498 -0.034467928
000090 20 0b 01 3e 0f 6f 56 3d 91 89 00 be 2b d1 e8 be
       0.126019 0.052352007 -0.12552477 -0.45472082
0000a0 e9 dc d0 be 84 3e 97 3e 6c a9 7e be 2a b9 97 be
       -0.4079354 0.29539883 -0.24869317 -0.29633456
0000b0 45 91 d3 bd 19 30 b3 3d 31 35 07 bf 54 0e 02 bf
       -0.10330442 0.08749408 -0.5281554 -0.50803113
0000c0 8a 55 8b be c4 e8 99 be ad 27 ab be 03 08 c8 be
       -0.272137 -0.300604 -0.33428708 -0.39068612
0000d0 1a d3 0f 3c 6d 3d d0 be fb a6 0e 3d e8 fe 92 be
       0.008778358 -0.40671864 0.034827214 -0.28710103
0000e0 45 24 6a be 79 fb 05 3e ca 20 8f be ae 14 9d 3d
       -0.22865398 0.1308421 -0.27954704 0.0766996
0000f0 13 9f 8c 3e 26 63 09 3d fe cf d9 3d de de 1f be
       0.27465114 0.03354182 0.106353745 -0.15612361
000100 7a 23 f9 3b f8 f7 ce bb 8d d6 3e bf 6e cc b8 be
       0.007603106 -0.0063161813 -0.7454613 -0.36093467
000110 0f c2 f5 3e 78 8a 10 bf 37 2a 19 be 27 60 3f bf
       0.47999617 -0.56461287 -0.1495751 -0.7475609
000120 87 5c 99 be 9d 63 c8 bc 39 fa e9 bb 66 fb 73 3d
       -0.29953405 -0.024461562 -0.0071404246 0.059565924
000130 e9 fe 0c bf 9e 44 2c be 09 df 15 bf 25 b5 06 3d
       -0.5507646 -0.1682305 -0.5854345 0.032887597
000140 63 6e 62 3e 43 36 c1 3b df 7a 96 bd 09 b0 9c be
       0.22112422 0.005896361 -0.073476546 -0.30603054
000150 20 bb cb bc c8 51 2a 3e 8f 3c 2a bb eb a3 bc be
       -0.024869502 0.1663276 -0.0025976037 -0.3684381
000160 15 f1 23 3d 90 50 07 be 59 1f bb 3e 64 bd da 3e
       0.040024836 -0.13214326 0.36547354 0.4272262
000170 5d 0d 55 be 84 68 84 bf 22 d5 ce bd 19 e1 81 be
       -0.20805879 -1.0344396 -0.100992456 -0.25367048
000180 20 19 d7 3d 3d 9d 9c be b5 21 19 3d 80 ab 77 3e
       0.10502839 -0.30588713 0.03738566 0.24186516
000190 5d c2 29 3e a8 43 f3 be ce 80 55 bf 50 87 72 bf
       0.1657805 -0.47512555 -0.83399665 -0.9473772
0001a0 91 14 1e bf a2 8b c1 3d 7e bb 63 bf 56 f3 77 3d
       -0.6175013 0.09450461 -0.88957965 0.060534798
0001b0 5a df 9d 3d 6a fc 4b be 20 a2 ee be 24 45 80 be
       0.077086166 -0.19920507 -0.46608067 -0.2505275
0001c0 57 e1 29 be 38 10 66 be 2f fa 11 3d ac 26 90 be
       -0.16589867 -0.22467124 0.035638984 -0.28154504
0001d0 c3 64 5e 3e a8 59 75 bf 37 47 23 3e e2 6d ae 3e
       0.21718125 -0.9583993 0.15945135 0.3406821
0001e0 7c 2f 58 be 6a b6 f3 bd dc 4d 29 3e ee b1 d3 bc
       -0.21111864 -0.11900027 0.16533607 -0.02584168
0001f0 9c 99 96 be a0 57 cc bd d4 94 91 3e 95 d8 14 bf
       -0.2941407 -0.09977651 0.2843386 -0.5814298

layer_2.weight f4 [256, 128]
000000 1f be 99 3e 10 5f 10 bf 78 6b c9 be c2 8d 7e 3e
       0.30027863 -0.56395054 -0.39339805 0.24858764
000010 87 52 44 be 22 e0 20 bf 5e c7 41 3f ac 84 b6 3b
       -0.19172107 -0.62842 0.75694835 0.005570015
000020 c4 a1 fd bd a3 70 fa bd c0 0d de 3e a2 f6 12 3e
       -0.1238437 -0.12228515 0.43369865 0.14351895
000030 1b e0 9d be 2c 8f 94 3e 63 f2 fd be 49 42 b3 be
       -0.3083504 0.2901548 -0.4959899 -0.3501151
000040 83 f6 d6 3d 9c 12 86 3d 74 ef ce 3e 94 80 57 be
       0.10496237 0.06546518 0.40417063 -0.21045142
000050 fd cb 97 be b2 9d 5d 3c 94 75 df be e6 66 89 bd
       -0.29647818 0.013526367 -0.43644392 -0.067090794
000060 6b 7c 6d 3e 60 90 79 bd 47 a4 0f be 0b 7b f5 3c
       0.23191993 -0.060928702 -0.1402751 0.029965898
000070 69 c2 99 bc f5 67 39 bd 7e 63 3f 3d 39 54 2e be
       -0.01876946 -0.045265157 0.046725743 -0.17024316
000080 ac ce 9e 3e 95 b9 d7 38 2b 5c 5c be ae 86 2d bc
       0.31017053 0.00010286566 -0.21519534 -0.010591192
000090 f2 44 1e bf a2 49 81 be 1e 8a 89 3e 0c db e9 be
       -0.6182395 -0.2525149 0.26863188 -0.45674932
0000a0 ce fb b0 3e a0 58 17 be 2a 58 8f be 42 b9 5f 3e
       0.34567112 -0.14779902 -0.2799695 0.21848014
0000b0 ac 39 c6 3d 91 e5 38 3e 99 0c d6 3d 57 6c 88 3e
       0.09678969 0.18056323 0.104516216 0.26645157
0000c0 71 c6 c7 bc dd 52 47 bf 95 83 bd 3c 84 9b 03 3c
       -0.024386616 -0.77860814 0.023134032 0.008032683
0000d0 a2 ed ae 3b e3 39 aa be ac 3b 59 be bc c7 d9 be
       0.0053383866 -0.3324729 -0.2121417 -0.42535198
0000e0 c9 ca 82 be ab 1d 9f bd 84 c3 0e be 94 ea 7a be
       -0.25545338 -0.077693306 -0.13941771 -0.24503547
0000f0 7b 83 49 be b4 49 17 bd 07 15 d3 be 35 bc 23 3d
       -0.19679062 -0.036935523 -0.4122698 0.03997441
000100 4b 98 13 3e 5d 84 a2 bd bb 31 1b 3d 12 fc 58 bf
       0.14413564 -0.079354025 0.037889224 -0.8475963
000110 d9 92 06 bf 13 63 96 bd 03 8a 51 3e 6a 50 ee be
       -0.5256782 -0.07343116 0.20462804 -0.46545726
000120 ef 6a 08 be 7e 9f 71 bc 8e b5 92 3e b1 51 65 be
       -0.13322042 -0.014747499 0.2865414 -0.22394444
000130 52 07 6b be eb a9 56 3e 65 92 90 bd 4a 9c 60 be
       -0.22952011 0.20963256 -0.070591725 -0.2193462
000140 29 5d 38 3d 42 7d df 3d 12 db 9f be 9f eb 7e bc
       0.04501072 0.10912563 -0.31221825 -0.015559106
000150 9f 9a d5 3c e0 43 05 bd 24 43 1c bd b1 c7 53 3f
       0.026074706 -0.032535434 -0.038149968 0.8272658
000160 11 4a f3 3c 6d ea d5 3d 6c 96 06 3e 68 f4 28 3e
       0.029698404 0.10445104 0.13143319 0.16499484
000170 44 a8 42 3d b0 0b 02 3e 8c 6f 0f 3f a0 4f 9a bd
       0.04752375 0.12699771 0.5602958 -0.075347185
000180 ac 19 db 3d f7 31 78 3e a4 fd 93 3d f2 4d 17 3e
       0.10698256 0.2423781 0.072261125 0.14775828
000190 7c c5 92 3d ab b4 89 bb 4c 0a 42 be 17 2e ef bd
       0.071665734 -0.0042024455 -0.1894924 -0.11678713
0001a0 75 85 f0 3d 58 f3 89 be ac f1 16 3d 22 3c ac bd
       0.11744205 -0.2694347 0.03685157 -0.08409907
0001b0 f7 3c a5 be 79 6c 8f 3e c5 3e fa be cf 17 80 3e
       -0.32273075 0.28012446 -0.48876014 0.25018165
0001c0 38 4d 14 be 54 ca 19 3f 08 10 5a 3d f6 44 8d be
       -0.14482582 0.60074353 0.053237945 -0.27591676
0001d0 da ca bf bd 74 e7 14 bf 8d a8 e0 3d a4 62 92 be
       -0.09364863 -0.5816567 0.109696485 -0.28590882
0001e0 09 25 43 3e 73 36 ec bc c8 e8 94 be 8e a6 5e be
       0.19057097 -0.028834557 -0.29083848 -0.21743223
0001f0 f5 55 56 3e b7 b6 41 3d d6 02 88 bd 88 8c e3 bc
       0.20931228 0.04729339 -0.06641166 -0.027776971
000200 dd c9 3c bd d7 bb 49 be 14 94 82 3d 56 f0 2d bf
       -0.04609095 -0.19700561 0.063759 -0.6794485
000210 38 61 42 3b 09 11 ae 3e 58 bb c0 3d da 8c 15 bf
       0.0029659998 0.33997372 0.09410733 -0.5841805
000220 ba 72 9f bd 06 3e e7 be 6d 41 1a 3f fc a4 87 3e
       -0.07785554 -0.45164508 0.6025608 0.2649306
000230 db 11 4e 3e c7 3d 52 3e 1a 9d 99 3c b8 ae 95 be
       0.20123999 0.20531379 0.01875167 -0.29234862
000240 66 88 2c 3c 11 1c 17 3e 3f 51 de 3b de d0 5b bc
       0.010530567 0.147568 0.0067845876 -0.013416497
000250 e6 6e 23 bf be 86 d8 bc 68 0e f0 3d db f5 20 3e
       -0.6384109 -0.026431438 0.11721498 0.15718786
000260 d5 4c 04 be 5e d1 9f 3d 4e b2 bf 3e 78 99 a4 3e
       -0.12919934 0.078036055 0.37440723 0.32148337
000270 02 c0 e4 3d c6 95 e8 be ef 88 69 3e 5c 92 00 3e
       0.11169435 -0.45426768 0.22806142 0.12555832
000280 66 99 ba 3d 7e 48 1c be 2d ce 94 3e 0c 5c 2f bf
       0.0911129 -0.15262029 0.2906355 -0.6849983
000290 59 51 6a 3c 5e ba c0 3a 65 ca 83 3d ec b1 7f 3e
       0.014301621 0.0014703979 0.06435088 0.24970216
0002a0 1c 7d ee 3c 3d a3 18 be 1a f8 01 3e 8b e0 e5 3e
       0.029112391 -0.1490602 0.126923 0.44897875
0002b0 b3 fc b6 bd e2 4f bb bd 1d 0c ad 3e 0b 52 a1 be
       -0.08934917 -0.09146096 0.33798304 -0.31507906
0002c0 18 16 16 bf 2f b1 17 bf 8f 22 b0 be 48 71 77 be
       -0.5862746 -0.59254736 -0.34401366 -0.24164307
0002d0 da 57 cb bd 62 c2 e5 bd de f2 46 be 05 6e 3e bf
       -0.09928866 -0.11218716 -0.19428584 -0.74386626
0002e0 ba cb 70 3c 41 d1 63 3c 29 35 36 bf c6 72 aa 3d
       0.01469701 0.0139048705 -0.71174866 0.083226725
0002f0 e8 df 8b 3e e7 41 2f 3d 86 9e b5 be 30 3d 9b 3d
       0.27319264 0.04278746 -0.35472506 0.0758003
000300 72 69 68 bd 0c d5 24 3e 47 cc 28 be 88 12 07 bf
       -0.056741185 0.16096896 -0.16484176 -0.5276265
000310 1f b3 4a 3e fa b6 b8 bd 3b cf a7 3b 29 64 28 be
       0.19794892 -0.09019275 0.0051211393 -0.16444458
000320 a7 aa 20 3e 7d 3d 3d bc aa 5a a6 bd fd 76 ed bd
       0.15690099 -0.0115503045 -0.081227615 -0.11594961
000330 16 35 ef be f3 c1 b3 3e 82 42 74 be 28 9c 76 3d
       -0.4672019 0.3510891 -0.23853496 0.060207516
000340 c4 35 15 3e fb 34 2f be f9 5d 84 be 9f b9 38 be
       0.14571291 -0.17110054 -0.25852945 -0.18039559
000350 64 66 0a bf d1 cc 21 3e f2 99 6c 3d 99 5c 95 be
       -0.54062486 0.15800788 0.057764 -0.2917221
000360 2a 94 65 3e 1b 50 14 3c 13 17 4b be 30 22 6f 3e
       0.22419801 0.009052302 -0.19833021 0.23352885
000370 42 3d 61 3e 9e 7a 62 bf 4e 9d 92 bc 57 b1 26 bf
       0.21996024 -0.8846835 -0.017897274 -0.6511435
000380 16 93 33 be 3e 89 0e 3f fe db 17 be f5 b6 de 3d
       -0.17536578 0.55678165 -0.14830014 0.1087474
000390 dd 2e d9 bd da da 3a 3e 90 f2 cb bd c8 09 27 be
       -0.106046416 0.18247548 -0.099583745 -0.16312325
0003a0 14 c0 55 3f a7 f6 77 be 1d 7f 63 be 18 32 5d be
       0.8349621 -0.24215184 -0.22216459 -0.2160114
0003b0 d6 98 cc bd c7 f1 e8 bc 3e fc 2d be fb 19 b3 3e
       -0.09990089 -0.0284356 -0.16990754 0.3498076
0003c0 2a 5a d1 be 8b 45 92 be db ec 53 be 46 cf 40 be
       -0.40889102 -0.28568682 -0.20695822 -0.18829069
0003d0 7e b5 c7 be 3c 82 17 3f 1d fb 0c 3e e4 80 42 3e
       -0.39005655 0.59183097 0.13767667 0.1899448
0003e0 22 76 9d be 14 fb 1e 3c 0d be 6a be 47 30 a4 3d
       -0.3075419 0.009703416 -0.22924061 0.08017021
0003f0 47 1d 07 be 55 e0 59 be 12 03 95 bd 09 eb a0 3d
       -0.13194762 -0.21276982 -0.07275976 0.078573294

layer_2.bias f4 [256]
000000 98 13 3a 3d 24 38 8b 3d 1b 73 5e bc 01 9f a2 3d
       0.045428842 0.06797817 -0.013577248 0.07940484
000010 62 f9 82 bd d5 48 36 3e 3e 03 7a 3d 8e 27 06 3d
       -0.06395222 0.1780122 0.06103825 0.032752566
000020 41 d7 4f 3e 4c 93 a1 3d ca 46 61 3c 63 f8 de 3a
       0.20296957 0.07889423 0.013749788 0.0017011281
000030 95 4f 97 3e 0d ca 68 3e 40 3e ea 3e c5 2d 82 3e
       0.29552904 0.22733326 0.45750618 0.25425544
000040 c2 8a 0c 3e 9d 54 ef 3c ec 84 47 bd 1f d7 ba 3e
       0.13724807 0.029215151 -0.04871075 0.3649225
000050 60 71 5b 3e 86 d6 a2 3c e3 ad 1e 3f 40 8d a4 3b
       0.21429968 0.019877683 0.6198408 0.005021721
000060 ba 4e 84 bb 3d 5b a5 3b 94 ab f0 bd 02 cb 60 3e
       -0.0040377053 0.005046277 -0.11751476 0.21952441
000070 ce f0 cc 3e b0 36 66 3d 27 36 fa 3e 34 44 f1 3e
       0.4002747 0.056204498 0.4886944 0.47122347
000080 b9 3e b3 3b a1 09 49 3d f0 9a e8 bd 3c 31 d5 bd
       0.0054701236 0.04908145 -0.11357677 -0.10409781
000090 78 7a a8 bd dc d0 8e 3e ec e8 26 3d 83 b8 31 3c
       -0.08226484 0.27893722 0.040749475 0.010847214
0000a0 f7 b2 90 bd 8b 13 93 3e e4 dd e4 3e f0 9d b5 bb
       -0.07065385 0.28725848 0.4470054 -0.0055425093
0000b0 b8 a3 62 3e 73 2a 7b 3e a3 39 4b bd f1 e1 2c be
       0.22132766 0.24527912 -0.049615514 -0.16883065
0000c0 d8 77 7f 3e 08 de 3d 3e ed 55 66 bd 26 f8 d3 3d
       0.2494806 0.1854173 -0.05623429 0.10350065
0000d0 64 01 db bd c3 95 55 3d b7 ba 0c 3e 64 6b 52 3e
       -0.106936246 0.052144777 0.13743101 0.20548779
0000e0 0f 1b 9c 3e 1c 60 99 3e 49 a8 eb bd 36 3b aa 3e
       0.30489394 0.29956138 -0.11506707 0.332483
0000f0 1a 6f 4c be 00 35 d3 3e eb 7d e1 3e 29 c0 4d bc
       -0.19964257 0.41251373 0.4404138 -0.012558022
000100 7d 67 01 3f 0e 4a 5b 3e d0 1f 4c be b5 32 a6 3e
       0.50548536 0.21414968 -0.1993401 0.3246056
000110 e1 c0 72 3e 47 7e b3 3d 06 96 98 3c 2a 72 14 bd
       0.2370639 0.0876432 0.018626224 -0.036241688
000120 5e a8 88 3e 35 2b de 3e 38 4a 1f 3f c0 cf d5 3e
       0.26690954 0.4339234 0.62222624 0.41760063
000130 84 f0 97 3e b2 81 9b 3e 48 12 8a 3e 88 af b3 3a
       0.29675686 0.30372387 0.26967072 0.0013708929
000140 5a 6a 00 3e eb 44 4a 3e 59 1d 9a 3c 36 64 cb 3e
       0.1254057 0.19752853 0.018812822 0.39724892
000150 bd 5e 1d 3f 9e 41 da 3d 36 35 fd 3d b5 71 5a 3e
       0.61472684 0.10657047 0.12363665 0.21332438
000160 c9 7b 3a 3f ae 1d 9c bd 18 d2 77 3e 91 1b 00 3e
       0.7284513 -0.076228485 0.24201238 0.12510516
000170 29 e7 47 3d 0f 52 03 3e 40 12 c5 bd 2b c9 93 3e
       0.048804436 0.12824272 -0.096226215 0.28864416
000180 d7 c8 c3 3c 87 82 d7 3e 3d ac a5 bc 1f a8 d8 3e
       0.023899479 0.42091772 -0.020223731 0.42315766
000190 0f 07 f5 3e b4 53 d5 3d a5 1c a7 3c 33 96 46 3e
       0.47856948 0.10416356 0.020399401 0.19393234
0001a0 36 86 ec 3e 7e 01 a7 3e f7 d8 5f 3c 0c e7 48 3d
       0.46196145 0.32618326 0.013662568 0.04904847
0001b0 af ab ea 3d 53 21 d0 bd e5 20 99 be 16 f8 81 3e
       0.11458527 -0.10162606 -0.2990791 0.25384587
0001c0 20 6c bf bd 9c 8f 00 be 73 86 7f bd 61 41 b1 3d
       -0.09346795 -0.12554783 -0.06238408 0.08655048
0001d0 57 65 da 3e da 98 9a 3e 0e 92 24 3e 4f fc e5 3d
       0.4265544 0.3019474 0.1607134 0.11229765
0001e0 0e 13 46 bd 0d 82 97 3e 76 46 bf 3d d2 1d 4a bc
       -0.048358016 0.29591408 0.09339611 -0.012336211
0001f0 45 43 ed 3e 81 fa bc 3e 77 28 6f 3e a3 aa 9e bd
       0.46340385 0.3690987 0.2335528 -0.0774739
000200 b1 71 35 be fa 27 b4 3e a5 57 cb 3e c4 72 2a 3d
       -0.17719151 0.3518675 0.39715305 0.041613355
000210 de 51 a9 bd ad b0 a8 3d 5e 5d 0a 3e 6a 77 2d bd
       -0.08267568 0.08236823 0.1351218 -0.04235021
000220 89 6d 8f 3d 53 c0 c4 3d 95 d9 ed bd dd ac be 3e
       0.07003314 0.096069954 -0.11613766 0.3724126
000230 63 57 ee be a3 72 d4 3e 8c ac a8 3e e1 b1 4a 3e
       -0.46551046 0.4149371 0.32944143 0.19794418
000240 0a 9e 90 bd 72 6a 6f 3e d3 1b a8 3e 11 c4 b5 3e
       -0.070613936 0.2338045 0.32833728 0.3550115
000250 fe 0e ae bd 9d 1f ce 3e db 7a 23 3f 7d 6e b9 be
       -0.08498953 0.40258494 0.6385934 -0.36217108
000260 49 b6 ae 3e e1 81 91 bd 9e 54 92 3c a8 16 94 3e
       0.34123448 -0.071048506 0.017862614 0.28923535
000270 8a 2a a5 3c c2 dd b1 3e 95 ee 8c 3e 08 00 07 3e
       0.020161886 0.347395 0.27525774 0.13183606
000280 da 82 98 3e 26 7b 83 3c d1 17 2c 3e b9 e2 80 3d
       0.29787332 0.016049933 0.1680596 0.06293244
000290 06 ce 5c 3d d6 e2 77 3e 44 a6 99 3e c5 c0 5e 3e
       0.053907417 0.24207625 0.30009663 0.21753223
0002a0 07 88 b4 3d 82 6e c9 3e a8 f0 e0 bb 72 85 e8 bd
       0.08815008 0.39342123 -0.006864626 -0.11353578
0002b0 8f 08 34 3e bf f9 a0 bd 1a da 26 3e 22 42 ed 3d
       0.1758139 -0.07860135 0.16294137 0.115848795
0002c0 8a fa 97 3e c7 4a 24 3e 67 63 4d bc 54 c8 04 3f
       0.29683334 0.1604415 -0.012535906 0.51868176
0002d0 81 72 fd 3c 14 3b 8b 3e 85 3a 5e be 2e 8c 92 3e
       0.030938389 0.2719351 -0.21702011 0.28622574
0002e0 07 a4 bc 3b a7 e2 df 3c b2 e5 a6 3e eb 2c 7c be
       0.0057568583 0.027329756 0.3259712 -0.2462651
0002f0 86 6a 37 3e e2 86 fd 3e b6 87 5d 3e dd 67 44 3e
       0.17911729 0.4951697 0.21633801 0.19180246
000300 33 9a 6d bd 0f 3a 8e 3e 66 bf 1c bc da 12 c1 bd
       -0.058008384 0.2777867 -0.009567117 -0.09427424
000310 bb 03 da 3e 70 8d ff 3e e1 4c 92 3e 05 64 a7 3e
       0.4258097 0.49912596 0.2857428 0.32693496
000320 8d 85 57 3e cf fc 4d 3e 26 bd 7c 3d fd 3f 9d 3e
       0.2104704 0.2011597 0.061703824 0.30712882
000330 9c ac a9 3e 4d 50 23 3e 81 f2 4a 3e 87 d3 90 3e
       0.33139503 0.15948601 0.1981907 0.28286383
000340 a2 6b 09 bf 75 69 9e 3d f5 ec b1 3e 1d 9c 2b 3d
       -0.5367986 0.07734958 0.34751096 0.041896928
000350 cc 66 d1 3e 15 73 f6 3d d9 71 0a 3e e7 56 c9 3e
       0.4089874 0.12033669 0.13519992 0.39324114
000360 5d 8b b3 3e af 05 89 be e9 48 7a 3e 4f e7 77 3e
       0.35067263 -0.2676215 0.24441876 0.24209331
000370 74 be c3 bc 7e 08 8c 3d 24 9b 82 3e 33 c5 b2 bd
       -0.023894526 0.06837557 0.25508988 -0.08729019
000380 46 cf 03 3f f4 38 70 bd f1 df f0 3d 82 a5 2e 3e
       0.5148815 -0.058648065 0.117614634 0.17055324
000390 94 b7 24 3e 33 a4 bb be 57 35 c8 3e 7a a1 fa 3d
       0.16085654 -0.36648712 0.39103195 0.122378305
0003a0 eb e5 3b be 9c c3 ab 3e c9 8a 4b bd 48 ca 26 3d
       -0.18349425 0.33547676 -0.049692903 0.040720254
0003b0 1d c1 17 3e 85 93 ce 3c 92 4c 50 3e 80 00 11 3e
       0.1481976 0.025216827 0.2034171 0.14160347
0003c0 bb 15 03 3e 1a b8 a3 3e 6d ce 91 3c 26 70 15 3e
       0.12801258 0.31976396 0.017798627 0.14593562
0003d0 a5 8d 84 3d 65 ec 92 3e 01 4c 05 bc dd 17 16 3f
       0.06472329 0.2869598 -0.0081357965 0.5863016
0003e0 52 5b 6a 3d b0 34 2d 3d 3c a8 ce 3e 12 c5 07 3e
       0.057215996 0.042286575 0.40362728 0.1325877
0003f0 2d b7 92 3e 67 81 b4 3e a8 b6 b4 3e 3e 7b 89 3e
       0.28655377 0.35254976 0.35295606 0.2685184

layer_3.weight f4 [128, 256]
000000 23 f5 21 3a 49 26 a6 ba 1b 01 5b 3a 11 6a 94 bd
       0.0006178191 -0.0012676205 0.0008354352 -0.07246793
000010 b1 9e a8 3c 54 fc fd bc 0f fd 22 bd a7 cc 47 bd
       0.020583482 -0.031004108 -0.039792117 -0.048779156
000020 46 fa 0d 3c 4d 36 85 bd 31 79 89 bd cb e3 3a bc
       0.008665627 -0.06504498 -0.067125686 -0.011406849
000030 66 c2 87 bd 13 2e 17 bd 11 13 0c 3d b3 51 a2 3c
       -0.066288754 -0.036909174 0.03419787 0.019814348
000040 e5 ad 04 bb 6f a5 b8 bb 52 68 ef 3b e0 b4 8c bd
       -0.002024525 -0.0056349556 0.007306137 -0.06870437
000050 4f bf cb 3c 14 e2 43 bb cf 61 80 bd 4b 98 81 3c
       0.024871496 -0.0029889392 -0.062686555 0.01581969
000060 4a 32 28 bb 56 ed 9f 3a 40 ed 00 bd 66 38 8c bd
       -0.002566474 0.0012201469 -0.03147626 -0.06846695
000070 8b 5e 01 bd 2e e2 59 3c dc 5a 81 bd c4 54 5d bd
       -0.031584304 0.013298554 -0.06316158 -0.054035917
000080 e4 b0 af 3c 1d 02 a0 bd cd de 3f bd aa 07 0e 3d
       0.021446653 -0.07812903 -0.04684334 0.034675278
000090 85 7f 91 bd 86 73 4e bd 39 87 61 bd 59 d8 9f bb
       -0.071044005 -0.05040314 -0.0550606 -0.0048780856
0000a0 94 69 7f bb b7 5a 75 bc 3c a2 99 bd 94 a8 f7 bc
       -0.0038972842 -0.014975241 -0.07501647 -0.030231752
0000b0 18 89 88 3c c8 9d db 3c 6d 92 9a 3c 40 9f 53 3c
       0.016666934 0.026808634 0.01886865 0.012916386
0000c0 70 e6 87 b9 60 00 92 bd 35 ea 81 bc 83 a1 a2 bc
       -0.00025920896 -0.07128978 -0.015858749 -0.019852405
0000d0 ca 86 02 3d c4 31 f3 bc 1c c1 5d bd e4 1b c9 3c
       0.031866826 -0.029686816 -0.05413924 0.024549432
0000e0 2f 63 3b bd 28 ef 8d bd ca 06 51 bd 3f 14 8c bd
       -0.045748886 -0.06930381 -0.051031865 -0.06839799
0000f0 86 e2 21 bd 00 9a 9d bc 56 ad 57 3c 2c 90 45 bd
       -0.03952267 -0.019238472 0.013163885 -0.048233196
000100 86 22 13 bd 13 2a 22 bd d7 94 44 3c f8 8d 1d bd
       -0.035921596 -0.039590906 0.011998377 -0.03846547
000110 e6 ec 36 3c 7a 7d b5 bd 83 f0 21 bd e9 3a 7f bc
       0.011164879 -0.088618234 -0.03953601 -0.01557801
000120 04 e4 a7 bd 26 c4 a2 3b a4 41 37 3c 61 73 48 bd
       -0.081977874 0.0049672304 0.011185084 -0.04893816
000130 de 5c 87 bc 10 04 70 3c 82 1b 95 bc 0c 3c 83 3c
       -0.016523775 0.014649406 -0.018201593 0.016019844
000140 06 79 9b bc ba c1 11 bd b0 af b2 bd 48 5f e3 3c
       -0.018978607 -0.035585143 -0.08724916 0.027755395
000150 8e 72 b8 bd 27 5f 85 bc 69 d8 d1 3b 15 70 3b 3c
       -0.090062246 -0.016280724 0.006403972 0.011440297
000160 3e 0e ef 3c 40 a2 db bc 4f 60 82 bd e1 88 cf bc
       0.029181596 -0.026810765 -0.06366026 -0.025333824
000170 45 43 04 bd 82 a8 87 3c 3e 6e 81 3b 7d f1 ee 3b
       -0.032290716 0.016559843 0.0039499095 0.0072919712
000180 c5 9c 14 bd ca 41 91 bd 85 d4 be bd 0c 7a b8 bd
       -0.03628232 -0.070926264 -0.09317879 -0.090076536
000190 55 1e 6c bd b8 96 b5 ba a9 55 99 bc c7 70 dc bc
       -0.057646114 -0.0013854122 -0.018717604 -0.026909245
0001a0 3f 96 9e bd fa 3a ba bd b0 e5 4f 3c c0 f3 00 bd
       -0.07743501 -0.0909328 0.012689039 -0.031482458
0001b0 d5 6f 0c bd d8 5e 20 bc cf bf ed 3b b2 9b a8 bd
       -0.03428634 -0.0097882375 0.0072555314 -0.082328215
0001c0 1b 06 53 bc 2a cc 20 bc 03 d8 8b bd 50 12 32 bc
       -0.012879874 -0.0098143015 -0.0682831 -0.010868624
0001d0 b3 57 86 bd 4b c6 56 bd 21 03 d1 39 35 fb 5a bd
       -0.06559696 -0.0524352 0.00039865918 -0.053462226
0001e0 37 e4 2b bd 71 b3 47 bd 43 5b a3 bd ee a9 65 bd
       -0.04196569 -0.048755113 -0.07976391 -0.05607026
0001f0 eb a8 35 bd 89 98 0f bd 1a 9d 03 bd ce 99 fc 3c
       -0.044350546 -0.03505758 -0.032132246 0.030835059
000200 d9 cd ba 3c 77 f9 a8 bd 71 41 17 bc eb d3 21 3c
       0.022803234 -0.08250707 -0.009231911 0.009877185
000210 4c cd b5 bc 90 77 ba bd 9d ee 86 ba 3b c0 66 bb
       -0.02219262 -0.09104836 -0.0010294501 -0.0035209793
000220 58 b7 4c bd 77 7c 46 bd 1f 48 2d bd fc 77 9c bd
       -0.049979538 -0.048458543 -0.04230511 -0.07640073
000230 05 bf b9 bc 1d 12 af bd 56 04 5b 3c b5 91 bf 3c
       -0.022674093 -0.08548377 0.013367733 0.023384908
000240 0b c4 54 3c b1 90 41 3b 60 74 80 3c 1f ac e7 3c
       0.012986193 0.0029535706 0.015680492 0.028280316
000250 d5 13 f7 3c 68 3b e8 bc 37 b4 ba bb 5a d0 6b bd
       0.030160824 -0.02834864 -0.005697753 -0.057571746
000260 a2 9c 56 bc 2a b4 31 bd af 00 98 bd c2 9e fc 3b
       -0.013098868 -0.04338471 -0.074220054 0.007709355
000270 e4 58 82 bc 57 e2 58 bd d8 99 b8 bd fe 17 8c bd
       -0.015911527 -0.05295023 -0.09013718 -0.06840514
000280 73 6a 29 bb 3d a5 9f bd 9b 1b c3 bd b8 5e 8e bd
       -0.0025850802 -0.077951886 -0.0952675 -0.0695166
000290 78 db c5 3c c8 4d f1 bc 6b e8 37 3c d7 75 24 bd
       0.024152502 -0.029456034 0.011224846 -0.040151443
0002a0 d8 4a 2d bd ba 9f b4 bd 9a 94 dd 3c dc 94 e2 3c
       -0.042307705 -0.08819528 0.027048398 0.027658872
0002b0 5d 7f 54 bd 9e 50 cb 3c 04 63 02 bc d7 70 88 bd
       -0.051879276 0.024818715 -0.0079581775 -0.066621475
0002c0 53 56 08 3d cc 6f 95 3b 03 46 66 bd ff 7a 59 3c
       0.03328545 0.0045604464 -0.056219112 0.013273953
0002d0 27 3c 20 bd 05 54 3a 3b 10 0b 32 3c 15 15 b7 bd
       -0.039119866 0.0028431427 0.010866895 -0.08939568
0002e0 36 70 68 bd 0d 55 8d bd 9a da 9a bd 4f da d2 3c
       -0.056747638 -0.06900988 -0.07561226 0.025738863
0002f0 32 45 30 bd 13 68 aa 3c 86 51 32 bd 17 ea c5 3b
       -0.04303474 0.02080158 -0.043534778 0.0060398686
000300 6d 2f 48 3c b7 04 ec 3c 67 4d 8f bd 56 92 6f bd
       0.012218338 0.028810842 -0.06997185 -0.058489166
000310 dc 09 13 3c 6f af a2 bd 11 14 b3 bd ab ff 3d bc
       0.008974519 -0.079436176 -0.08744062 -0.0115966005
000320 fb 18 aa bd 51 3f 03 3d 3b 7c 74 bd 0d 95 92 3c
       -0.08305546 0.032042805 -0.059688788 0.017893339
000330 90 46 82 bc 1d 30 a9 bd 1a 9c af bd c8 40 97 bc
       -0.015902787 -0.0826113 -0.08574696 -0.018463507
000340 a4 e5 0d ba 84 74 b5 3c 42 e6 82 bc db ba 29 bc
       -0.0005412942 0.022150286 -0.015978936 -0.010359491
000350 e3 5a b9 bb 18 ce 71 bd 06 b9 57 bd d8 75 40 3b
       -0.0056565865 -0.059034437 -0.052666686 0.0029367115
000360 ec fa 73 bd 7d 1a b0 bc 9a 1e 96 bd 1c 42 3e 3c
       -0.05956547 -0.021497006 -0.073300555 0.011612441
000370 05 23 64 ba 33 1d d0 bc 1c 3d ab bd 74 89 0d 3d
       -0.0008702728 -0.025404548 -0.08361265 0.034554914
000380 f8 c2 6f bd 8d 96 eb 3c ad f0 31 bd 4b 9f 82 bb
       -0.058535546 0.028758312 -0.043442417 -0.0039862744
000390 cb d5 ab bd 84 37 c1 bc ca 7e cb 3c b5 1f 24 bc
       -0.08390387 -0.023586042 0.024840731 -0.010017325
0003a0 69 f6 5f 3c d7 39 d7 bc 6c 6f a0 bd 91 a8 10 3d
       0.013669589 -0.026272697 -0.07833752 0.035317007
0003b0 bd ca b6 3c 78 36 27 bd b4 d2 78 bd ed 12 e9 bc
       0.02231347 -0.04082343 -0.060747817 -0.028451407
0003c0 a4 7e b6 bd 5b 29 56 bd 85 ac b7 39 32 57 ca 3c
       -0.089108735 -0.052285533 0.00035033017 0.024699781
0003d0 f5 68 92 bd 0a 97 dc 3c ed f1 80 bd b9 b6 35 bd
       -0.07148925 0.02692749 -0.06296144 -0.04436371
0003e0 c9 ea 3f bd e3 c8 54 3c fe a5 f8 3c 85 b6 06 3d
       -0.046854768 0.012987348 0.030352589 0.032888908
0003f0 44 81 64 bd b2 50 5c bd 7a 75 4c bd df 1b 2e bd
       -0.05578734 -0.053787895 -0.049916722 -0.04250705

layer_3.bias f4 [128]
000000 c4 6b ef 3b c6 d4 19 3f f6 8a ce 3e bb 3e 14 3c
       0.007306548 0.6009029 0.40340394 0.009048159
000010 06 9c 9e bd 64 02 88 bc ed 7e 1a 3f 4d 7f a5 3c
       -0.07744603 -0.016602702 0.60349923 0.020202303
000020 a8 20 5c bd a2 49 1c 3f 27 1f dd be ee f6 97 bd
       -0.05374208 0.61049855 -0.4318783 -0.07420145
000030 9b ce 50 bc 96 c4 1e 3f 21 9f 90 bd d2 31 08 3f
       -0.012744571 0.62018716 -0.070616014 0.5320102
000040 67 42 a7 bc a7 74 e5 3e 47 0f e6 3e 8f c8 75 bd
       -0.020417405 0.4481556 0.4493353 -0.06000572
000050 46 98 4f bd 00 ce 45 3c 71 9d 9c bd fa af f6 3e
       -0.05068233 0.01207304 -0.07647217 0.48181134
000060 ad 8d 02 3f 1c bf f4 3e 46 d9 0d 3f 78 9d a9 bd
       0.5099743 0.47802055 0.5540966 -0.08281988
000070 e7 8d a6 3c df 49 84 bc d2 4e 6b bd 36 5d 8c bd
       0.020331336 -0.016148506 -0.057448216 -0.06853716
000080 fc 08 11 3c 48 16 77 bd 1a 51 18 bd 1c 00 f7 3e
       0.00885224 -0.060323983 -0.03718672 0.4824227
000090 2b f6 fd 3e f6 b3 00 3f a1 ea e3 3e e6 a7 12 3f
       0.49601874 0.502746 0.44514945 0.5728744
0000a0 c8 df 49 be c0 4a 0b 3f be 32 0d 3f 32 bb c1 3c
       -0.19714272 0.54410934 0.5515555 0.023648832
0000b0 5c 87 2c bb 4f b7 fd 3e 0b 45 24 3f 9e 49 3e be
       -0.0026325798 0.49553916 0.6416785 -0.1858277
0000c0 1d 33 0a 3f 7e db 1d bd 65 3d 08 3f 36 ef 13 3f
       0.5398424 -0.038539402 0.5321868 0.5778688
0000d0 1b 54 22 3f c3 92 03 3f 69 d7 04 3f 95 42 48 bc
       0.63409585 0.51395816 0.5189119 -0.012222906
0000e0 e9 04 7a bd 5d e8 84 bd 93 17 64 bd 00 46 03 3f
       -0.06103984 -0.06489632 -0.055686545 0.51278687
0000f0 f3 0a b7 b8 4b 5c 16 3f 20 83 22 3f cf 8b d7 3e
       -8.7281594e-05 0.5873458 0.6348133 0.42098853
000100 31 ce 14 3f e8 c7 bb bc b9 f6 12 bd 16 f5 1f bc
       0.58127123 -0.022922471 -0.035879824 -0.009763023
000110 c6 57 03 3d d0 b6 61 be 58 98 6c 3b d4 03 3b bd
       0.03206613 -0.22042394 0.0036101546 -0.045657948
000120 91 f7 fd 3e 0a 68 b0 be 91 b3 f8 3b 1a ca 0f 3f
       0.4960294 -0.34454376 0.0075897654 0.5616776
000130 f8 4c ab be 63 29 02 3f 8e 36 3d bd 3a d0 42 bd
       -0.3345716 0.508444 -0.046194606 -0.04756186
000140 73 1d e4 3e 32 cf 9f bd 62 c0 17 bd 52 14 04 3f
       0.44553718 -0.07803191 -0.037048705 0.51593506
000150 4e a0 42 be 36 19 a8 bd 27 1a 09 3f d1 0c ea 3a
       -0.19006464 -0.082079336 0.5355553 0.0017856603
000160 62 da 13 3f 77 65 0e 3f aa 15 45 3c b2 4e 22 3f
       0.577551 0.55623573 0.012029091 0.6340133
000170 b4 71 0e 3f a9 2c 91 bd 6a 84 15 3f d2 b0 07 3f
       0.5564225 -0.070885964 0.5840517 0.5300418
000180 53 7e 0c 3f 86 2f 25 3f f6 7b 00 3f 7d 25 57 3c
       0.54880255 0.6452564 0.5018915 0.0131314965
000190 f3 93 b4 39 58 18 06 3f fc b6 5c bd ec 0d 29 3c
       0.00034442506 0.52380896 -0.053885445 0.010318261
0001a0 b7 08 f5 bc f8 08 55 bd 05 2b 01 3f ff cc d6 bc
       -0.029911382 -0.052010506 0.5045627 -0.026220797
0001b0 0d 6c 80 bd c5 bd a8 bc f6 6e 16 3f 0e ae b0 bd
       -0.06270609 -0.020598302 0.5876306 -0.08626948
0001c0 dc 74 f7 3e cb b8 22 3f a7 18 21 3f 38 77 b1 bc
       0.48331344 0.6356322 0.6292824 -0.021663293
0001d0 b7 12 92 bd 63 b3 01 3f bc 3e d6 3e 71 59 49 bd
       -0.07132476 0.5066435 0.41844738 -0.049157564
0001e0 07 3e 80 3c df 55 0c 3f eb c1 e4 ba 0f a9 0b 3f
       0.015654577 0.5481853 -0.0017452812 0.5455484
0001f0 23 d7 17 3f 99 3a af bd cb f9 fd 3a 61 22 d4 bc
       0.5931265 -0.085560985 0.0019376812 -0.0258953

layer_4.weight f4 [1, 128]
000000 ee d8 99 ba 6b 25 97 3d 10 e7 59 3f c3 72 f2 bb
       -0.0011737624 0.07380184 0.851182 -0.0073989346
000010 55 14 9a bc 17 af 5b 3c 3e 9f aa 3d fb 52 32 bd
       -0.018808523 0.013408444 0.08331154 -0.043536168
000020 86 f1 42 bd b6 67 af 3e 9c eb 9d 3c 44 c6 74 3b
       -0.047593616 0.34258813 0.019277386 0.003734962
000030 7f a7 12 bd c1 af 1a 3e 4a 45 6b bd 39 32 4a 3d
       -0.035804268 0.15106107 -0.057439126 0.049364302
000040 a1 fa 20 3b 65 4b 55 3d 4a dd 3a 3d 58 25 40 bd
       0.002456345 0.052073855 0.045621194 -0.046910614
000050 51 52 2a bd b2 20 67 bd 0c 39 41 bd a5 25 05 3e
       -0.04158241 -0.056427665 -0.047173545 0.13002641
000060 68 21 05 3f 0f 1f ec 3c 3a 36 f3 3d c9 ed d7 3b
       0.520041 0.028823404 0.11875577 0.0065896255
000070 6b 73 06 3c 27 60 83 bd 70 76 70 bb 07 e5 5a bc
       0.008206229 -0.06414824 -0.0036691688 -0.013360268
000080 60 dc b8 3c de e2 00 be c0 ed 3b bd 74 7d 4b 3e
       0.02256602 -0.12586543 -0.045881033 0.19872075
000090 4b da 93 3d 9c 37 94 3d 48 1b b7 3d b9 4f ea 3d
       0.072193705 0.07237169 0.0894075 0.11440987
0000a0 b1 7b 1a 3e 47 cd 36 3e 7b 41 00 3e f0 7c 2a bd
       0.15086247 0.17851745 0.12524979 -0.041623056
0000b0 56 62 82 3c 2e 11 82 3d 46 7a 15 3e 3f 86 ba bf
       0.01591603 0.06350933 0.14597425 -1.4572219
0000c0 96 b2 04 3d b1 6d 35 bd 94 97 9c 3d d3 c5 0b 3e
       0.032396875 -0.044294063 0.07646099 0.13649683
0000d0 f7 5b e1 3d ed 2b cc 3d e2 8a 4e 3d 6d 29 62 bd
       0.11003869 0.09969316 0.050425418 -0.055215288
0000e0 f8 81 37 bd 63 af 0b bd cd 32 92 3c 80 0e 88 3e
       -0.044801682 -0.03410281 0.01784649 0.26573563
0000f0 08 d8 df bc b5 aa 91 3e e7 f4 b4 3d 38 13 b6 3e
       -0.027324691 0.28450552 0.08835774 0.35561538
000100 ec 7a ee 3d c7 9c 1a 3b 99 81 35 bd 26 30 3a 3b
       0.11644539 0.0023591982 -0.044313047 0.0028410046
000110 f5 56 82 bb 85 87 3b 3d e3 72 49 3a 65 b9 45 3c
       -0.0039776512 0.04578354 0.0007684661 0.012068127
000120 35 84 96 3e fb 07 c0 bf 50 02 2e bc 8a 55 93 3d
       0.2939774 -1.5002435 -0.0106206685 0.0719405
000130 a1 c0 63 be 3a 6f f4 3d f2 50 d9 bb 0b 46 a1 bc
       -0.22241451 0.11935277 -0.006631964 -0.01968672
000140 f4 89 fd 3e 7a 37 85 3b 97 9f 53 bd fc 8e bc 3d
       0.49519312 0.004065451 -0.05166587 0.092069596
000150 4f 06 ab bf b5 a3 5d bd 6f 69 86 3e 04 70 1a 3c
       -1.33613 -0.0541112 0.26252314 0.009426121
000160 97 11 97 3d 00 ef f6 3d 28 ca a8 bc 55 99 02 3e
       0.07376402 0.120573044 -0.020604208 0.12753804
000170 95 5b 01 3e 38 17 81 bc 66 55 18 3e ef 7e d8 3d
       0.12632592 -0.015758142 0.14876327 0.10571086
000180 36 55 79 3d 34 4f dc 3d 2e 1c 5f 3d cb fb 53 3f
       0.06087228 0.10757294 0.054470234 0.8280608
000190 aa 52 9c bc 58 d6 6a 3d 00 05 31 ba 0e 8b 82 bc
       -0.019082386 0.05733332 -0.0006752759 -0.015935447
0001a0 e2 22 81 3b 4f 26 51 bc ed 76 58 3d 1f 94 78 bc
       0.003940926 -0.012765481 0.05284779 -0.015172034
0001b0 8b c4 ac 3c 53 7c ca 3c a9 42 da 3d a0 5c cd 3b
       0.021089813 0.024717486 0.10657246 0.0062671453
0001c0 2c 3e 56 3d db 84 0a 3e 78 45 a4 3d f7 90 62 bd
       0.052305385 0.13527243 0.080210626 -0.05531403
0001d0 ae 09 ac 3c e3 a4 b8 3d d8 49 81 3d a5 0d 02 bd
       0.02100071 0.09015825 0.06312913 -0.031751294
0001e0 99 2b 3a bc 62 d7 13 3e 19 26 d1 3c 53 12 87 3d
       -0.011362934 0.14437631 0.025530862 0.06595292
0001f0 b8 1d 88 3d 45 61 af bb bb a3 38 3c 42 ea bf bc
       0.066462934 -0.0053521716 0.011269505 -0.023427133

exp_avg f4 [128, 13]
000000 0a a7 2b bb 0a 04 23 3d 48 89 03 3d 81 a5 02 3d
       -0.0026192092 0.039798774 0.032113343 0.031896118
000010 2d 22 5b 3d c6 69 2c 3d 2d 21 0a 3d 8d dc 96 3c
       0.05349939 0.04209306 0.033723045 0.018415714
000020 18 8f 13 3d 09 d8 b0 bd f8 0e 9a 3c b0 0d 92 3d
       0.036025137 -0.086349554 0.018805966 0.07131517
000030 12 f9 98 3d b4 11 82 3d 9e e0 e0 3c 57 20 88 bc
       0.074693814 0.06351033 0.027450856 -0.016616983
000040 e7 a0 ba bc 92 01 06 bc 06 de 2b 3b 63 00 e5 3c
       -0.022781802 -0.008179085 0.0026224866 0.027954286
000050 77 33 a2 bc df 24 29 bc 71 45 d9 3c 85 9f 74 bb
       -0.019799931 -0.010323732 0.02652237 -0.0037326526
000060 2e 32 04 bd 97 4c 74 bd 14 0b 8d bc 3b 84 42 3b
       -0.032274418 -0.059643354 -0.017217197 0.0029680866
000070 60 4f 2a bd 3c e2 27 bd 89 c7 1f bd 48 fc 29 bd
       -0.041579604 -0.04098724 -0.03900865 -0.04150036
000080 0f 77 17 bd 98 03 29 bd d8 86 20 bd d4 b1 83 bc
       -0.036978777 -0.041263193 -0.039191097 -0.016076006
000090 e6 c0 8d 3b 05 35 4d bd 02 2d 79 bd 1f 7b 4e ba
       0.004325974 -0.05009939 -0.06083394 -0.0007876623
0000a0 14 b0 83 bc 43 79 9d bc b3 05 91 bc 38 2f 06 bd
       -0.016075172 -0.019222861 -0.017702913 -0.032759875
0000b0 89 81 b8 bc 7f 28 4b bc 3b cd 88 bc 81 38 8f bc
       -0.022522705 -0.012399792 -0.016699424 -0.017482998
0000c0 46 a2 25 3c e7 db 06 ba 2f 6a 9b bc f9 76 ab bc
       0.01010949 -0.00051444623 -0.01897153 -0.020930754
0000d0 fd 17 b2 3d 4c d0 4b 3b 48 82 2b bd 63 0a 40 bd
       0.08695982 0.0031099496 -0.041872293 -0.046884906
0000e0 14 b1 46 bc bf 0e 93 bc da a6 22 3c 8f b9 53 bd
       -0.01212718 -0.017951367 0.009927476 -0.051690634
0000f0 6f e0 18 bd a1 eb 17 bc 96 fd 48 3c 2c 9c 3b bd
       -0.03732341 -0.009272487 0.012267491 -0.045803234
000100 1d 86 d1 bd d7 7a 3c 3d cf b3 21 bd f4 24 01 bd
       -0.10230658 0.046015587 -0.03947812 -0.031529382
000110 71 bd 08 bd 59 a7 91 bc af c7 e9 bc e3 43 af bc
       -0.03338379 -0.017779993 -0.0285376 -0.021394676
000120 d1 1b f9 bc 6c 17 15 bd 8c 00 b9 3d 28 43 32 3c
       -0.030408772 -0.03639929 0.090333074 0.010880269
000130 08 4c 22 bd cf 0c b4 bc 23 e3 93 3d 50 cb eb 3c
       -0.03962329 -0.021978764 0.07221057 0.02878347
000140 be f8 9d 3d 8d 6e 9f 3d 01 c3 ad 3d 5a a8 cf 3d
       0.077134594 0.07784758 0.0848446 0.101395324
000150 e8 09 d8 3d 08 90 97 3d 64 07 aa 3d 82 09 17 3c
       0.105487645 0.07400519 0.08302191 0.009218575
000160 04 cf f0 bc f4 56 be 3d bf 4e e2 3d e6 c7 8f 3c
       -0.029395588 0.09293929 0.11050176 0.017551374
000170 3a 81 1a ba 9e 0c 41 bd 13 87 48 bd 5b fe db bc
       -0.000589389 -0.047131173 -0.04895694 -0.026854685
000180 48 dc 1c bd 00 d7 0a bd 2e 35 4c bd c0 7a 45 bd
       -0.038296014 -0.033896446 -0.049855404 -0.048212767
000190 a4 e5 94 bd f7 a9 99 3c b6 da 24 bd 7b d1 47 bd
       -0.07270363 0.018757803 -0.04024764 -0.04878376
0001a0 be 7f 78 bd 2e fc 6c 3d 45 08 09 3e 14 18 0a 3e
       -0.0606687 0.057857685 0.13382061 0.13485748
0001b0 7d ff 19 3e 93 a4 1a 3e 73 ce 23 3e e4 9b fd 3d
       0.15038867 0.15101843 0.15996723 0.123832494
0001c0 e8 2e 11 3e 72 2e cd bd 90 8b 8c bd cc c8 2b 3e
       0.1417805 -0.10018624 -0.06862557 0.16775817
0001d0 d9 10 15 3e 68 c4 3a 3d e1 cc e8 bc 29 1d c6 bc
       0.14557208 0.045597464 -0.028418006 -0.024183827
0001e0 06 a9 d6 bc a0 81 02 bd 02 fa ca bc 9d af 9a 3c
       -0.026203644 -0.0318619 -0.024777416 0.018882567
0001f0 d3 18 c2 bc 3c 83 f9 bc 47 34 80 bd 54 46 de bc
       -0.023693478 -0.030458085 -0.06259971 -0.027133144
000200 7a 50 57 bd d5 03 96 bd 25 10 b0 3e ee cb 8f 3e
       -0.052566983 -0.0732495 0.34387317 0.28085274
000210 5b 5f 5b 3d 61 67 df ba 05 4d e4 3d 07 e7 ab 3d
       0.053557735 -0.0017044359 0.11147503 0.08393674
000220 51 51 73 3d ae a2 e0 ba 89 85 7a 3d 96 49 0d be
       0.05940372 -0.0017138326 0.061162505 -0.13797602
000230 aa e3 f6 bc 54 c4 ed 3d 33 2e e2 3d 36 a5 85 bc
       -0.030137856 0.11609712 0.11043968 -0.01631413
000240 32 54 4d bc 6b 59 04 bc 29 b7 eb bb 14 33 59 bb
       -0.012532281 -0.0080779595 -0.0071934653 -0.0033142017
000250 72 5a ca bb 44 45 1c bc 06 ab 08 bc 51 2c 10 bc
       -0.0061753327 -0.009537999 -0.008341556 -0.008799628
000260 03 8f a3 3b 57 c1 fc 3c a6 08 b0 bb 12 4d 94 bb
       0.0049914136 0.03085391 -0.0053721247 -0.004525789
000270 40 b5 ef 3a 4f e9 01 3d 9d eb 2e 3d 70 c5 2c 3d
       0.001828827 0.03171664 0.042705167 0.04218048
000280 44 c3 6e 3d bc 85 63 3d 8f ba 5b 3d 60 9e 13 3d
       0.05829169 0.05554746 0.053644713 0.03603971
000290 1d 92 43 3d 91 10 2e bd 5f ee 53 bc ce 2d 67 3d
       0.047746766 -0.042496268 -0.01293525 0.056440167
0002a0 2e f0 55 3d 3f ba 07 bd 69 1a a5 3d 71 40 7b 3d
       0.052231006 -0.033136602 0.08061678 0.061340753
0002b0 eb 63 72 3d 66 40 9b 3d cd b1 82 3d 5f f1 ee 3c
       0.05917732 0.075806424 0.06381569 0.02916783
0002c0 66 91 57 3d 05 42 89 3d 14 dd 25 bd e1 93 b7 3b
       0.052628897 0.06702045 -0.04049404 0.0056023453
0002d0 10 78 c2 3d bc 3f 13 3e 6b 3f 04 3d 90 55 b4 3c
       0.09495556 0.14379781 0.032287043 0.022013456
0002e0 03 39 10 3d 89 10 12 3d 42 e3 19 3d e3 ef 43 3d
       0.03521062 0.0356603 0.037570246 0.047836196
0002f0 e5 9e 91 3d a6 b5 02 3d 57 7c 13 3d 57 4c 9e bd
       0.07110385 0.031911515 0.03600725 -0.077294044
000300 cd 96 02 bd ee a6 00 3d 40 8c 9d 3c e1 96 3e 3b
       -0.031882096 0.031409197 0.019231915 0.002908163
000310 58 0a a3 3b 30 8b 16 3c d8 d0 13 3c 2c 9f a1 ba
       0.0049755983 0.009188458 0.00902196 -0.0012330762
000320 25 d0 97 3b e0 29 e7 3b a0 a0 4c 3c fa 5c 11 3c
       0.004632967 0.0070545524 0.012489468 0.008872265
000330 9f bb 2f 3c 37 cc 45 bc a8 2e c1 39 d6 86 54 ba
       0.010725885 -0.012072614 0.0003684659 -0.00081072503
000340 50 66 8a bd 8d cb 49 bb 18 db 4e 3d b6 3e 54 3d
       -0.06757796 -0.0030791492 0.050501913 0.05181762
000350 8d f2 66 3d 0f 17 67 3d 6f a2 50 3d b5 11 3a 3d
       0.05638366 0.056418475 0.05093616 0.045427043
000360 1f 3c 56 3d 7d ab 7d bd cd 39 c4 bc 0e 43 a8 3d
       0.05230343 -0.061931122 -0.023953343 0.08215915
000370 b9 e8 9d 3d 7f b9 62 bd b0 4b d4 bc 77 ac 82 3c
       0.07710404 -0.055352684 -0.025914997 0.015951378
000380 68 d1 92 3c bf 61 70 3c fe 2b 88 3c 2f 9f 2d 3c
       0.017922118 0.014671742 0.01662254 0.010597034
000390 e4 f1 7f 3c 92 b8 87 3c 19 9f 77 bc 43 d0 5e bc
       0.015621636 0.016567502 -0.015113615 -0.013599458
0003a0 32 34 00 3d a9 66 29 3d e7 f3 ae 3d c8 4a 7a 3c
       0.031299777 0.04135767 0.085426144 0.015276618
0003b0 47 f3 50 bd fd a6 6a bd 02 9b 6a bd 4e 70 5e bd
       -0.051013257 -0.05728816 -0.057276733 -0.05430632
0003c0 83 4c d5 bc 2b a2 2e bd c4 17 6e bd fc bb 61 3d
       -0.02603746 -0.042635124 -0.058128133 0.055110916
0003d0 90 1d 06 3d 2d e7 f5 bd 25 4e 07 be bb 59 fb 3c
       0.032743037 -0.12006984 -0.13213404 0.030682435
0003e0 c7 33 ab 3c 9a 52 f7 bb 44 29 e4 bb 7c f5 16 bc
       0.020898713 -0.0075476887 -0.006962927 -0.0092138015
0003f0 5f 32 d4 bb 63 98 70 3b 03 9c e6 bb b5 a7 fa ba
       -0.0064757313 0.0036711923 -0.007037641 -0.0019123467
