colab ver./model_best.pth (torch, 824759 bytes, 21 tensors)

layer_1.weight f4 [128, 13]
00000000: a98b cfbe ec81 33be f882 b13d b6ee 08bd
00000010: af55 453e 2101 ce3e 53da 4ebf 22ab 52bc
00000020: a0f3 41be bb93 743f a416 61be c7cd dfbe
00000030: 2b9e f43d f07f 9340 9303 05bf 1c12 3b3f
00000040: b177 3e3f 1dc8 05c0 93b2 35be 0fc1 543f
00000050: 8ba7 1240 937e a3bf ed83 c5bf 14bd 8cbf
00000060: cecc 0b3f 121d 853f 61de 0ebe ed64 b53d
00000070: 0702 e33e efe7 ba3d 3b0a 01bf 1029 22bf
00000080: a888 353f 4103 dd3e 2963 693e bc64 873e
00000090: dc5d ccbe 2732 55bf 880f f33e 5a58 cfbf
000000a0: 9188 19bf 5ed5 dfbd 82f2 04bf a22d 3840
000000b0: 619e aabf bb11 2940 5072 f53e 9f2e 87c0
000000c0: 8a32 04bf 7ef2 413f ac1c 923f 8f8f 29bd
000000d0: e245 a7bf 805c 4e40 0158 d73f 28c6 de3f
000000e0: 61bf 323e 677f 53c0 3b5f 2cc0 69c4 a33f
000000f0: 5837 093f 380b 773f 2ac7 b4ba 37be 2ebf
00000100: e758 92be edcb 02bf 5471 683f 558a a53e
00000110: d6d5 953f efba 783f eb68 82bf 37e1 c9bf
00000120: 3d6d 2dbf 5e57 443f 3e3f 1f3f 90ec 13bf
00000130: b5a2 32bf f39f 4bbe 5030 8440 f5e7 99c0
00000140: 7a03 0cbe 07e7 a23f 5c69 0ac0 d43f 0dc0
00000150: 301d a7be ffbc 9f3f 8d80 c33f b3da 0b3f
00000160: 91fe 153f cd68 fabd 9fd3 2e3f c753 92be
00000170: b25a 05c0 d386 bbbe 4c28 593e ff44 2bc0
00000180: 37e8 f5bf d901 0640 db39 99bc 2180 4240
00000190: 0f46 98bf a547 dc3e 61b6 853e f5e4 9ebe
000001a0: 1fd2 9ebf d38b e13f 3ca0 503f 66da 6ebf
000001b0: ab7e 49c0 29c6 46bf d973 d13f 1c68 cf3f
000001c0: 7d10 b6be dcc1 c0be a896 dfbe 1824 8d3f
000001d0: ea96 9ebe 2eeb f4bf 438a b13f 2036 60c0
000001e0: 647f a6bf e6bc b8be b524 1540 ef22 d83f
000001f0: e21d c4c0 5a53 6f40 7089 e2bf e4e1 cfbe
00000200: 7e4b e13f 17f8 36bf d364 d43d fce1 83bf
00000210: 34db ebbf 1e42 dbbe fff5 eebf b95c 6e40
00000220: 9bd1 1540 0501 69be e2e8 1dbf dcbc f53f
00000230: b9c3 10c1 ee62 2440 1d53 4a3e c95e 87bf
00000240: 758e b9bf 16e1 20bf 1517 22bf cf47 7d40
00000250: 22dd a1bf 598c 2fc0 5d44 a3bf cb54 38bf
00000260: 3f25 f53e 4784 d63f f6d3 72bf 79a9 4140
00000270: 3126 a63e 1ffd 80bf 0876 003f f055 fe3e
00000280: 9b8c 103f e03e b03e 03d3 eebe 0108 7abf
00000290: d1f4 6cbe 5c74 b03e af76 85bf b56b 48bf
000002a0: df7f 393f 000c 0cbe a934 a1c0 ea38 9abf
000002b0: 6147 b840 43e9 9c40 5702 b53e fce8 3b3e
000002c0: a15f 95c0 9061 f7bf 4804 f8bf 8905 be3f
000002d0: ec60 5fbe bc21 a03f a2e8 d7bf 5158 bc3f
000002e0: 4c05 b4bf 40e6 5840 8efb 38bd f2e6 183f
000002f0: be5d af3f 0011 d3c0 0c1d d83f bf7d bdbe
00000300: a610 29bf 5a9a 2cbe f577 913f 7305 c4be
00000310: 815b 04bc c391 2ebf a985 b33e 3a06 4c3e
00000320: 58c5 0bbf eef8 863f 7332 8dbe 4095 993e
00000330: 5a53 da3e bf15 b6bc b253 17bf 7941 a33e
00000340: 38cb 03c0 b0ed 3440 5b1a e63e f533 9e3e
00000350: 2c4d 1a3f f144 89bf de24 4cc0 e290 dabe
00000360: 58c1 37bf 41e9 f63f 492a 703f 2ebb fb3e
00000370: 84a8 413e 9f56 c3bd d856 383f 6b7b c33d
00000380: b9ff 413e f17f 463f d263 553e 01a7 2fbf
00000390: b183 27bf fbc1 eebe 9911 093f aab1 2bbf
000003a0: 14a4 29bf 7743 2f3f c8f2 03bf d724 193f
000003b0: 2111 713e 4976 b63d 2add 37be 226f 0bbf
000003c0: 83a7 31bd ef98 58be 26b0 af3d 081f cd3e
000003d0: 59ce 69bf c433 113e 02e2 663e 4fb9 94bd
000003e0: 0178 e1be 80ab db3b 865c 06bf 5bc7 a8bf
000003f0: b702 85be 9c13 eb40 9eac 96bf 116a c43e
-0.4053624 -0.1753003 0.086675584 -0.033430777 0.19270967 0.40235236 -0.80801886 -0.012858184
-0.18940592 0.9553792 -0.21981293 -0.43711683 0.11944231 4.6093674 -0.5195858 0.7307451
0.74401385 -2.090339 -0.17743902 0.83107084 2.291476 -1.2773002 -1.5430886 -1.0995202
0.5460938 1.0399497 -0.13952018 0.08857141 0.44337484 0.09126269 -0.50406235 -0.63343906
0.70911646 0.43166545 0.22791733 0.26444042 -0.3991536 -0.8327965 0.47472787 -1.6198838
-0.5997401 -0.109293684 -0.5193254 2.8777852 -1.3329583 2.6417072 0.47938776 -4.224441
-0.51639616 0.7576064 1.1415 -0.041396674 -1.3068202 3.2243958 1.6823732 1.7404222
0.17455818 -3.304651 -2.6933124 1.2794315 0.5360007 0.96501493 -0.0013792266 -0.68258995
-0.28583452 -0.51092416 0.90797925 0.323321 1.1705883 0.9716024 -1.0188268 -1.5771855
-0.6774481 0.7669581 0.62205875 -0.5778284 -0.6977952 -0.19885235 4.1308975 -4.809565
-0.13673201 1.2726754 -2.1626806 -2.2070208 -0.32639456 1.2479552 1.5273606 0.54630584
0.5859156 -0.122270204 0.6829166 -0.28579542 -2.0836606 -0.366263 0.21206778 -2.6760862
-1.9211491 2.0938628 -0.018704345 3.0390704 -1.189638 0.4302341 0.26115707 -0.31034055
-1.2407874 1.7620796 0.814945 -0.93302 -3.1483562 -0.7764612 1.6363479 1.6203647
-0.35559455 -0.37647903 -0.4366963 1.102664 -0.30974513 -1.9134271 1.3870319 -3.5033035
-1.3007627 -0.36081618 2.3303654 1.6885661 -6.128648 3.7394624 -1.7698193 -0.40602028
1.7601163 -0.71472305 0.10370793 -1.030334 -1.842627 -0.4282388 -1.8668822 3.7244093
2.3409183 -0.22754295 -0.61683476 1.919826 -9.047784 2.5685382 0.19758268 -1.0575801
-1.44966 -0.62843454 -0.6331647 3.9575078 -1.2645609 -2.7429411 -1.2755238 -0.72004384
0.4787998 1.6759118 -0.94854677 3.0259688 0.32451013 -1.0077246 0.501801 0.4967494
0.56464547 0.3442297 -0.46645364 -0.97668463 -0.23140265 0.34463775 -1.0426844 -0.7828935
0.7246074 -0.13676453 -5.0376782 -1.2048619 5.7587132 4.9034743 0.35353348 0.18350595
-4.6679235 -1.9326649 -1.9376307 1.4845439 -0.21814317 1.2510295 -1.6867869 1.4714452
-1.4064116 3.3890533 -0.045161776 0.59727395 1.3700483 -6.595825 1.6883864 -0.3701
-0.6604103 -0.16855755 1.1364733 -0.38285407 -0.008078457 -0.68191165 0.35062912 0.1992425
-0.54598 1.0544717 -0.27577552 0.2999668 0.42641717 -0.022227166 -0.59112084 0.3188589
-2.0592785 2.8270073 0.44941983 0.30899015 0.60274005 -1.0724164 -3.1897502 -0.42688662
-0.71779394 1.9289933 0.9381452 0.49166244 0.1891194 -0.09538006 0.72007513 0.095450245
0.18945207 0.77538973 0.2083886 -0.686142 -0.6543532 -0.4663237 0.53542477 -0.6706797
-0.6626599 0.6846232 -0.5154233 0.5982184 0.2354169 0.0890928 -0.17955461 -0.5446645
-0.043372642 -0.2115209 0.085785195 0.40062737 -0.91330487 0.14179903 0.22547153 -0.07261907
-0.44036868 0.006703794 -0.5248493 -1.3185838 -0.25978634 7.3461437 -1.1771429 0.38362172

layer_1.bias f4 [128]
00000000: f8cc 1bc0 2709 7ac0 cc44 cfbf cd81 0bc0
00000010: 350f 47bf e96f 42c0 08b3 57c0 d5b7 4cc0
00000020: 5f2c 19c0 f952 f2bf 2abd 93c0 332b a8c0
00000030: 5785 33c0 ed3a 5ec0 f202 24c0 a683 19c0
00000040: 7a30 d13f 788d 10c0 395e 21c0 184b b1be
00000050: a27c a4c0 7deb 3140 5606 27c0 6a77 2f3e
00000060: 8854 d4bf 9256 15c0 f7f4 0cc0 98a5 97c0
00000070: 1420 25c0 9978 eabf ea00 3bc0 f96e 21c0
00000080: 93b9 4fc0 0939 afbf 61e7 aec0 792b 8dc0
00000090: 47c6 23c0 aa91 27c0 a128 b8bf 63dc 5ac0
000000a0: 53c4 31c0 51bc ccc0 369c 07c0 370c 19c0
000000b0: 233e 00c0 c3bc 03c0 a720 c5bf a05c 49c0
000000c0: 19a4 31c0 f153 2bc0 43e1 79c0 0b5c 85c0
000000d0: 3900 0fc0 d17b 9dc0 4c2c 32c0 fca4 08c0
000000e0: f7a2 48c0 2c35 0ec0 e62a 0cc0 1ce9 a2bf
000000f0: f36e 6bc0 7bd9 94c0 a0c9 95c0 cf3e 11c0
00000100: 4365 fdbf 30ef cb3f 99a4 1ec0 1eef 95be
00000110: bc4c 663f dca3 4dc0 b7fc 14c0 c474 0bc0
00000120: e51d 39c0 ebff d2bf bb06 1bc0 bc4b c3bf
00000130: 077a d1bf ab16 68c0 1c8e 81c0 e4a0 bfc0
00000140: 9a05 39c0 0a8e 1ac0 156f c2bf dbc2 2dc0
00000150: 85d1 afbf ab8e 08c0 385b 11c0 6467 c1be
00000160: 1b38 26c0 af40 efbf e02f d6bf 1e8b 0640
00000170: 0da0 a5c0 7128 85c0 e050 bec0 4776 31c0
00000180: 78b6 d9bf be78 9ac0 ca8d 5a3d d337 0ac0
00000190: 95b9 84c0 35f4 afbd 4824 71c0 38d2 d5c0
000001a0: 0c03 42c0 1266 12c0 18bc 47c0 af94 25c0
000001b0: 7cb3 5ec0 86de 99c0 56f0 0ac0 bbd6 2ec0
000001c0: d883 0ac0 455e 82c0 6243 00c0 6c4b 8bc0
000001d0: 879e 05c0 9b5b 1bc0 ca16 45c0 cb43 9dbf
000001e0: 2cfc 4abf d34e 54c0 0d5c 48c0 a389 6e3f
000001f0: 474e 0ac0 f348 2ac0 f777 edbf 5d92 e0bf
-2.4343853 -3.9068086 -1.619287 -2.1797974 -0.7775758 -3.0380805 -3.3703022 -3.1987202
-2.3933332 -1.8931571 -4.6168413 -5.2552733 -2.8050134 -3.4723465 -2.5626798 -2.3986602
1.6342919 -2.2586346 -2.521376 -0.34627604 -5.140214 2.779998 -2.6097617 0.17135397
-1.6588297 -2.3334088 -2.2024515 -4.738964 -2.580083 -1.8318053 -2.9219308 -2.5223982
-3.2457016 -1.3689281 -5.4657445 -4.4115567 -2.558977 -2.6182656 -1.4387399 -3.4197013
-2.7776077 -6.397988 -2.1189094 -2.3913705 -2.0037925 -2.058396 -1.540059 -3.1462784
-2.7756407 -2.6769984 -3.904374 -4.1674857 -2.2343886 -4.9213643 -2.7839537 -2.1350698
-3.1349466 -2.2219954 -2.1901183 -1.2727389 -3.6786468 -4.651548 -4.6808624 -2.2694585
-1.9796528 1.5932369 -2.4787962 -0.29283994 0.8996084 -3.2131262 -2.3279245 -2.1790018
-2.8924496 -1.648435 -2.4222858 -1.5257487 -1.6365365 -3.6263835 -4.0485973 -5.98839
-2.890967 -2.4149194 -1.519015 -2.715018 -1.3735815 -2.1337078 -2.2711926 -0.37774193
-2.5971744 -1.8691615 -1.673336 2.102241 -5.1757874 -4.1611867 -5.9473724 -2.772844
-1.700881 -4.827239 0.053357877 -2.1596572 -4.147654 -0.08591501 -3.7678394 -6.6819115
-3.031436 -2.2874799 -3.1208553 -2.5872 -3.4797049 -4.8084135 -2.170919 -2.731856
-2.164297 -4.0740075 -2.0041127 -4.352957 -2.0878007 -2.4274662 -3.079516 -1.2286314
-0.79291034 -3.317311 -3.1306183 0.93178767 -2.1610277 -2.6607025 -1.8552235 -1.7544667

layer_2.weight f4 [256, 128]
00000000: 54d1 2bbf 85c8 8340 dde7 48bf b572 41bf
00000010: 7c73 42bf b51d d13f d90d 35be 739c aa3f
00000020: 7dd1 b2be e1ed fa3f 2814 ee3f 2536 1340
00000030: b4ea 6dbf 3d5a 3840 1bc6 0040 57fe 3dbf
00000040: 7305 a7bf 5553 40c0 b1eb 92bf f9a3 5d3e
00000050: b37b cbbd f7cb 9f3d 23fe 40bf 1bb3 563f
00000060: 91f1 9abf b36a f1be 09e6 31c0 9373 023f
00000070: a0d9 ecbf 6f0f 40bf 6267 8ebd 39a9 46bd
00000080: d446 87bf f3b4 143e d1b1 5140 f2ad 343f
00000090: ed2c 773f ba20 9a3e 354b e3be 0040 32c0
000000a0: c985 813f 1ba4 803f e01d 563f 4c29 87bf
000000b0: ad6f 93bf 388f c9be 67f3 7f3f 3b90 bb3e
000000c0: e91d ecbf 334e 7e3e 0d50 933f dc9e 193f
000000d0: 748f bebf 3ac7 6f3f 82d5 6bbf 413d 853f
000000e0: 589d 74bf 3d56 9cbf a634 933f 11d8 12c0
000000f0: 627e 7cbf 6b5b 57c0 18e9 edbf 8f69 cebe
00000100: 2131 673f f317 3ac0 7f7a 99bf bebd a13d
00000110: 4873 4fbf 4dd9 92bf 38ca 623f 9c14 b83f
00000120: 2879 2dc0 ad78 8cbe 80b6 28c0 b576 0bc1
00000130: 4370 823f 02e6 dabe 7315 bbbe b4ab a6bf
00000140: 06ee e2be 9fc7 643f 9ec1 98bf 9ea6 e33c
00000150: beae 083d 400c 0cbe 979e 04bf 503d c6bf
00000160: c80c dfbf 56a0 7bbf f015 b13f 3bb1 18bd
00000170: 664e 50bf cf0f 5940 98c5 4240 425c 29bf
00000180: 11d4 0c40 172d aabf e334 0bc0 0e69 1ec0
00000190: 5db1 3840 fd6a 433e 08dc 373f 33bf 483f
000001a0: 27bc 59c0 4c36 4dbf 45cb e7bf cdbf f23e
000001b0: 3cd0 37c0 ac5f 013f ed6e aabf 60de f1bf
000001c0: c441 f3bf b387 afbe 192e 17bf 087a 133f
000001d0: bea8 3dbf c4dd b4bf 3620 89be 74b4 b13f
000001e0: 75df 463f 77e7 94bf d015 2f40 b648 e7bf
000001f0: b66d 8c3f abba 023f 613d eabf bc31 8b3d
00000200: 9f52 8a3f e2a7 893f 3f56 acbf f496 05bc
00000210: fd3d 2b3c 77df ca3f 404d 8dbf ffc5 a13d
00000220: 16bf 993f 326b b33e b356 5d3f 100f 0e3f
00000230: e7d5 413f 7c76 38bf c46a 6a3e 8aaa f53f
00000240: 60d4 bfbf 7b2e 823e dd4f 2a3f fb6e debe
00000250: 5b04 f33f 2473 883f 3e24 3cbd 2ca5 49bf
00000260: a405 8fbf 65e8 7dbe 0a7a 82bf f831 c33e
00000270: 6668 c43f 7b09 c73e 18e2 883f 5366 b43e
00000280: fc1d 6e3f d1ee 11be 2f66 923f 6742 82bb
00000290: 844d 3ebe 8df0 343f 1722 d9be 6a80 68be
000002a0: f12d b3be 94ab 6abf 0cfa 953e cc3d 5540
000002b0: 4024 09bf 2d78 dabe 78a4 19bf 817a f5be
000002c0: 148a ea3e abbb 363f 0a8e 203f bed7 3dbf
000002d0: 471c dbbe 4b49 673f 1ff7 663f b37d 77bf
000002e0: 5e83 7b3f 6f66 2e3f b44e 5a3f 5f9d a33f
000002f0: b5e2 e7bf a5ab 033f c480 8fbe 2629 d3bd
00000300: f557 93be cbe6 a8bf 0b4c 7ebf 1718 76be
00000310: 7fcd dbbf 1213 54be 4a18 563e 44c6 af3f
00000320: 4a25 e7be a1a8 0d40 17d0 9e3f 14ae 55bf
00000330: b63e 5c3f 0c5f 68be aecd 8c3d 20bd bd3e
00000340: 1862 4440 4072 a7be 0589 0d3f 0db9 afbe
00000350: 177b 973f 535a 41be 9e3c 893e fe7f 373f
00000360: 4b67 843f 2e6b 50bf 1194 d63f d4dd b3be
00000370: 8848 bc3d 5885 843f e48e 233f 2a4b 88bf
00000380: 57f1 3dbd d0fa 1a3f 8cb7 d3be d0ef 2d40
00000390: 66fe 5dbe 633c f43e c6de 51bf fdeb bb3e
000003a0: 62b6 04bf 924f be3f 454a bfbe 6d7c fb3e
000003b0: 2fc9 febe a3a7 52be 2e21 763f ee00 30bf
000003c0: d4c7 cd3f ce04 86be c5da 4a3f e9d8 6c3f
000003d0: 03de 8b3f 6716 7dbe 13a6 e53f c12b 583f
000003e0: daad 343f e824 b53e ce47 2440 f2b0 63bf
000003f0: e9ff 703f 2559 f33d 9e83 993f ee6e 0cbe
-0.67116284 4.1182275 -0.78478795 -0.75565654 -0.75957465 1.6337191 -0.17681064 1.3328995
-0.34925452 1.9603845 1.8599901 2.3001797 -0.92936254 2.8805077 2.0120914 -0.74216217
-1.3048538 -3.0050862 -1.1478177 0.21644582 -0.09935703 0.07802575 -0.7538778 0.83867043
-1.210497 -0.47151718 -2.7796652 0.509576 -1.8503914 -0.7502355 -0.069533125 -0.048501227
-1.056849 0.14522152 3.276478 0.7057792 0.96552926 0.30103093 -0.44393316 -2.7851562
1.0118953 1.0050081 0.83639336 -1.0559478 -1.1518456 -0.3936708 0.9998078 0.36633477
-1.8446628 0.24834518 1.1508805 0.60008025 -1.4887528 0.9366337 -0.9212266 1.0409318
-0.9555259 -1.2213818 1.1500442 -2.2944376 -0.98630345 -3.3649547 -1.858676 -0.4031491
0.9030934 -2.9077117 -1.1990508 0.078975186 -0.8103528 -1.1472565 0.8858981 1.438129
-2.7105198 -0.27435818 -2.636139 -8.716481 1.019051 -0.42753607 -0.36539802 -1.302115
-0.44322222 0.893671 -1.1934087 0.02778941 0.033369772 -0.13676548 -0.5180449 -1.5487461
-1.7425776 -0.9829153 1.383482 -0.037278395 -0.81369627 3.3915899 3.0433102 -0.661564
2.2004435 -1.329501 -2.175103 -2.475162 2.8858254 0.19083782 0.71820116 0.78416747
-3.402109 -0.80160975 -1.8108908 0.47411957 -2.8720846 0.5053661 -1.3315102 -1.8895988
-1.9004445 -0.34283218 -0.59054714 0.5760808 -0.74085605 -1.4130177 -0.26782387 1.3883195
0.7768472 -1.1633137 2.7357063 -1.8069065 1.0970981 0.5106608 -1.8299981 0.067965955
1.0806464 1.0754359 -1.346382 -0.008153666 0.010451791 1.5849446 -1.10392 0.07899093
1.201144 0.3504272 0.8646042 0.55491734 0.75717014 -0.7205579 0.2289229 1.9192669
-1.4986687 0.25426087 0.6652811 -0.43444046 1.8985704 1.0660138 -0.045933 -0.7876766
-1.1173596 -0.24795683 -1.0193493 0.3812406 1.534436 0.3887442 1.0693998 0.35234317
0.930145 -0.14251257 1.1437434 -0.003975201 -0.18584257 0.7067955 -0.4240882 -0.22705236
-0.34995988 -0.9166806 0.29292333 3.3318968 -0.5357094 -0.42669812 -0.60016584 -0.47945026
0.4580847 0.7138011 0.62716734 -0.7415732 -0.4279501 0.9034621 0.90220827 -0.96676177
0.98247325 0.6812505 0.8527634 1.2782401 -1.811606 0.51433784 -0.28027928 -0.10310583
-0.28778043 -1.3195432 -0.9933478 -0.24032627 -1.7172087 -0.207104 0.20907703 1.3732381
-0.45145637 2.2134173 1.2407254 -0.8346875 0.8603319 -0.22692508 0.06875168 0.37058353
3.0684872 -0.32704353 0.552872 -0.3432087 1.1834439 -0.18882112 0.2680406 0.71679676
1.0344023 -0.81413543 1.6763936 -0.3513018 0.09193522 1.0353193 0.6388991 -1.0647938
-0.046372738 0.6053896 -0.41350973 2.717762 -0.21679077 0.4770232 -0.8198055 0.36703482
-0.51840794 1.4868033 -0.3736135 0.49118367 -0.49762866 -0.20571761 0.9614438 -0.6875142
1.6076608 -0.2617554 0.79240066 0.9251848 1.0927128 -0.24715577 1.7941307 0.84441763
0.70577776 0.3537972 2.5668826 -0.8894187 0.9414049 0.11882237 1.1993291 -0.13714191

layer_2.bias f4 [256]
00000000: 11c3 9dbf ba17 6bc0 3584 35c0 26e9 8fbf
00000010: 333e 04c0 3734 e2bf f2cc 2bc0 b86d 59c0
00000020: 2498 44c0 9876 5dc0 626a 49c0 a93c 84bf
00000030: fcd8 033e bf0b 12c0 859d 1940 a5fb d2bf
00000040: 3684 85bf c616 96bf df49 d7bf b5d2 6840
00000050: 551a 123f 2d73 31c0 14e8 17be 8bd9 12c0
00000060: 515c 02bf eedb d4bf 7ead 04c0 c864 ffbf
00000070: 0be2 72c0 ebed 26c0 5024 e93f 7b6b 8cbf
00000080: c95c 92bf ca14 45c0 8df7 2cc0 f668 21c0
00000090: cd7e 40c0 a026 2dc0 efe0 2bc0 11c4 46c0
000000a0: a81d 51c0 cf70 513f 0e5c fbbf 9981 41c0
000000b0: 1fbc b2be 624e 4ec0 35dc 0bc0 b71f 59c0
000000c0: 2f92 0dc0 fe94 3bc0 ce56 dcbf 73f1 24c0
000000d0: bbfa 87c0 2427 11c0 d764 2bc0 a652 fdbf
000000e0: bf7d 23c0 7ba2 633e eab0 4ec0 15a5 01bf
000000f0: 1d21 4fc0 9957 c8bf 58a4 17c0 8b00 913f
00000100: c498 2f3f 7f2b 0f3f 593f 16c0 a49c 2ec0
00000110: fe9e 1cc0 2a5a 12c0 1155 e4c0 9016 1bc0
00000120: 31ed 8abf 0c23 8ebf 59d3 43c0 ba88 0fc0
00000130: d2ae 35c0 3764 05c0 d6c3 11c0 3856 48c0
00000140: 5a10 b7bf 824f 2fc0 bd93 a7bd bd3a 98c0
00000150: 9586 1dc0 11ff df3e d80c 34c0 42dd 443e
00000160: 9e41 e53f 9f74 2dc0 3642 43c0 559e 93be
00000170: 345a bcbf 1da1 7cbf 0feb 53c0 2368 06c0
00000180: 3574 d6c0 5241 dcbf 9501 1840 372c 24c0
00000190: d911 16c0 862e 52c0 f83e 09c0 e6fb 55c0
000001a0: 3d85 a5c0 ab81 29c0 5e17 a4c0 7a8d 5240
000001b0: 9f53 16c0 3015 5ec0 9858 0dc0 6c59 00bf
000001c0: e51f 6fc0 b8a3 5ec0 3bde a3c0 5364 18c0
000001d0: c5b1 b0bf c8bb 32c0 4474 01c0 7986 5fc0
000001e0: bad4 0fc0 6e9d 01c0 e875 1fc0 bc5b e0bf
000001f0: 7ffb a240 a181 3dc0 122b 74c0 a607 4cc0
00000200: 12a4 42c0 aeae 3240 73ba e840 5b8f 84bf
00000210: 99a3 35c0 027c e63f 6a67 bcbf 2ab3 fdbf
00000220: ad8b 82c0 8be3 6bc0 858a 60bf c957 8240
00000230: 7a8f 2fc0 e6b7 fd40 5486 d440 0ba9 a0be
00000240: 76dd 05c0 ed48 debf fde0 09c0 1a24 3dc0
00000250: e7c6 cc3e f5b4 27c0 87b7 0a40 e60a c5bf
00000260: 32f8 73c0 cd36 3fc0 f9cc 123e 3175 05c0
00000270: 46f0 9ec0 1387 cd3f 441c 42c0 5a0e 91c0
00000280: 3d3a 03c0 40eb 49c0 5b51 e2bf 66ef b2bf
00000290: 276a 3ec0 f3da dabf 16f7 b0bf 8720 04c0
000002a0: 84fd 28c0 be0e c73f 052f d4bf 4353 91c0
000002b0: cfaa 60c0 9c18 6cc0 a48d 3cc0 9138 1fc0
000002c0: 633c c3be a158 2ac0 e970 38c0 34ff f540
000002d0: 695f ab3e 9fee 7e40 3ef0 e6bf 4a67 0140
000002e0: fa1e da3f 2257 6dbf 6d0b 32c0 6912 22c0
000002f0: b2e3 02c0 d3e0 4ac0 88eb 25c0 2677 1b3f
00000300: a25b 6fc0 741a 3bc0 1a3a 5ec0 2ea0 30c0
00000310: e8b4 42c0 3501 0fc0 da55 bd3f 4a48 26c0
00000320: f20a 6fc0 b49a 1dc0 068e 1dc0 ff4a 28c0
00000330: 1add 20c0 5bc6 3cbf 4bc9 e6bf 845b d8bf
00000340: a2ea 0cc0 08b4 febf 8487 9c3f 4bbb 3f3f
00000350: b92e 26c0 9b05 3bc0 61b1 8d40 980c 183f
00000360: 0711 21c0 3523 3cc0 081a 14c0 dcfe 40c0
00000370: 345d 62c0 7f66 f3bf 49f4 21c0 e61d 18c0
00000380: 687b 3540 5bd4 29c0 69f4 16c0 59d4 2cc0
00000390: 977e 06c0 d8d8 20c0 f8f0 24c0 9da8 0f40
000003a0: 75ec 2fbf a644 1cc0 b895 4ec0 993a 25c0
000003b0: aa85 26c0 4ed4 23c0 60e8 08c0 a25f a3bf
000003c0: 187c 1ac0 40a9 debf 6ecd 2ec0 9861 f0bf
000003d0: 8621 d0bf d97e debf 6bef a23f b32f 9dc0
000003e0: 3522 1c40 5186 76c0 4221 dfbf da13 00c0
000003f0: 33e7 03c0 f3cc 9cbf 54a8 15c0 01b1 eebe
-1.2325155 -3.6733232 -2.8361943 -1.1243026 -2.0662963 -1.7672185 -2.6843839 -3.3973217
-3.071786 -3.4603634 -3.147118 -1.0331012 0.12875742 -2.281967 2.4002392 -1.6483046
-1.0430973 -1.17257 -1.6819419 3.6378605 0.5707143 -2.7726548 -0.14834625 -2.2945278
-0.50922114 -1.6629617 -2.0730891 -1.9952631 -3.7950466 -2.6082714 1.8214207 -1.09703
-1.1434566 -3.0793939 -2.7026093 -2.5220313 -3.0077393 -2.7054825 -2.6856039 -3.105717
-3.267435 0.8181276 -1.9637468 -3.023535 -0.3490915 -3.223534 -2.1853154 -3.3925607
-2.2120473 -2.9309688 -1.7213991 -2.577237 -4.2493567 -2.268014 -2.6780298 -1.9790847
-2.55455 0.2222995 -3.229548 -0.5064252 -3.236396 -1.5651733 -2.3694057 1.1328291
0.68592477 0.55925745 -2.3476164 -2.7283106 -2.447204 -2.2867532 -7.135384 -2.423252
-1.0853635 -1.1104445 -3.0597746 -2.2427201 -2.8387952 -2.0842416 -2.2775779 -3.1302624
-1.4301865 -2.7392278 -0.08182476 -4.75717 -2.4613392 0.43749288 -2.813284 0.19225028
1.791065 -2.710243 -3.0509162 -0.28831735 -1.4715028 -0.9868334 -3.3112218 -2.100106
-6.7016854 -1.7207434 2.3750966 -2.5651987 -2.3448393 -3.2840896 -2.1444683 -3.3434997
-5.1725144 -2.6485393 -5.1278524 3.289885 -2.3488538 -3.4700432 -2.2085323 -0.50136447
-3.7363217 -3.4787426 -5.1208777 -2.3811233 -1.3804251 -2.7927113 -2.0227213 -3.4925826
-2.2473588 -2.0252337 -2.4915714 -1.7527995 5.0932 -2.961037 -3.8151288 -3.1879668
-3.041264 2.7919116 7.27276 -1.0356249 -2.8381102 1.8006594 -1.471906 -1.9820302
-4.0795503 -3.6857631 -0.87711364 4.073216 -2.743132 7.9286985 6.6413975 -0.3137897
-2.091642 -1.7366005 -2.1543572 -2.9553285 0.399955 -2.6204197 2.1674516 -1.5393951
-3.8120236 -2.9877198 0.14336003 -2.0852778 -4.9668303 1.6056846 -3.0329752 -4.533002
-2.0504296 -3.1549835 -1.7681078 -1.3979309 -2.975229 -1.7098068 -1.3825405 -2.0644853
-2.6404734 1.5551374 -1.6576849 -4.541414 -3.5104253 -3.689002 -2.946145 -2.4878275
-0.3813201 -2.6616595 -2.8818915 7.6874027 0.3347123 3.9833143 -1.8042066 2.0219293
1.7040703 -0.9271108 -2.7819474 -2.5323737 -2.0451474 -3.1699722 -2.5925007 0.6072868
-3.7399678 -2.9234896 -3.4722962 -2.7597766 -3.0422916 -2.2344487 1.4791825 -2.5981622
-3.735043 -2.4625673 -2.4617934 -2.6295774 -2.513495 -0.73740166 -1.803018 -1.6902928
-2.2018209 -1.9898691 1.2228856 0.7489516 -2.5966017 -2.9222171 4.4279027 0.59394217
-2.5166643 -2.9396489 -2.3140888 -3.0155554 -3.5369387 -1.9015654 -2.530535 -2.3768249
2.8356571 -2.6535861 -2.3586676 -2.7004607 -2.1014764 -2.513235 -2.5772076 2.2446663
-0.6872018 -2.44169 -3.227888 -2.5817015 -2.6019082 -2.559833 -2.139183 -1.276356
-2.413824 -1.7395401 -2.7312884 -1.8779783 -1.626023 -1.7382461 1.2729315 -4.9120727
2.4395878 -3.851948 -1.7432024 -2.0012116 -2.0609863 -1.2250046 -2.338399 -0.46619418

layer_3.weight f4 [128, 256]
00000000: 2077 333d e3c4 303e e49e dabe 6043 83bf
00000010: 3ced 133d d3ab b33e 026a 2e3f 7c50 d43d
00000020: 6c3a 35bf 12c3 4c3e ab5d 8bbf a671 c0be
00000030: e577 8b3e 8cd4 8a3e fd67 0bbf 689b 243f
00000040: 4dd6 d4be 5856 813f 143d 443f a31f 38bf
00000050: 3ec4 4e3e dc06 3e3f 507d 3dbf 0308 41be
00000060: 4f6c 83bf e4d6 d0bd 18c1 bfbf c71f b93d
00000070: 3920 93bf 4a89 02bf f0e4 f73e 9ca3 c1bf
00000080: 6c28 973e 101b 0040 0508 a73d d3a2 ddbf
00000090: da08 6a3f 0f6a 1d3f 6fee cfbe 4e91 47bf
000000a0: c111 bfbe ca20 53bf 1dd8 ab3f 629c 3abf
000000b0: 8bee 9a3e f9f3 26bf dc94 f0be 365d dcbf
000000c0: 32f1 25bf be3f 4cbf 0194 673e 9ad4 17bf
000000d0: c6e7 86be 2ed7 e83d 7838 923f e515 643f
000000e0: 9ef0 553e e7ee 74be 79c9 dabe d467 8b3f
000000f0: 0160 403f 72b6 4a3f 8835 88bf 59ed 5ec0
00000100: 6803 d9be 774f 7f3e 72a5 88bf 9157 8abf
00000110: 747d 723e fab4 b83e 68b1 31be 7da8 c0bd
00000120: 76bb db3e dea5 b2be 50d2 923f 7106 c7bf
00000130: 714d 553f 7b32 263f 4f9a 09bf dae8 9abf
00000140: fd6c 9a3d d864 223f 808a c63e d5de cabd
00000150: bc83 603f fa67 5e3f 692e 283f 87ec 3bbe
00000160: 0302 75bf afb5 3e3e da1d 03bf fcdd b9bf
00000170: f91f c3bf ebd5 093f 40a7 1540 ad69 753f
00000180: c851 023f 2679 723f 13e7 993f 750a 88bf
00000190: 36c1 603f 1f79 153f 40a1 13be a25a 073f
000001a0: c516 99be 9eef 9cbf 7ee5 e93e 6414 94bf
000001b0: 3f18 1c3e 7eca d4bd 156f 91bf d034 0a3e
000001c0: 3931 f13d 0718 0ebf b33c ae3b 658a 8abf
000001d0: 3c8e 7cbf b001 4e3e ecd0 3cbf 8e3a 80bd
000001e0: f312 cbbf 47fb 043f 0262 0b3f b694 e9be
000001f0: 35ff 913e ade6 11bf 3edc 3ebf 0ddb 273f
00000200: 0272 22be a8c1 aebe 42c8 6dbf 4630 c3bf
00000210: 3b78 993f d7ed 8dbe 4b72 c33c 5954 dabd
00000220: d584 f9bd 3d35 d9be 3653 c6bf fbf3 483d
00000230: 3779 eb3e 74b8 ea3a 87ca c73c dfee 82bf
00000240: 1705 933d b1da 8abf 5cee 95bf 904f 373e
00000250: bb38 fcbe aa67 7b3e 7432 113f bb76 953f
00000260: 97f4 703f d828 173e 259d 25bf 9f46 99be
00000270: 6b69 143f f61a 81bf bf91 af3e 48c8 09bf
00000280: ee4e a2bf 6a7c f23e c16a 123d ca34 edbf
00000290: a9eb 99bd 3cb3 7c3e abc8 c3be 713e a53e
000002a0: eeb3 283f 4298 bcbe 05d7 513e ce68 3fbc
000002b0: ae98 e2bf 2ed2 373f 72d1 203f 8c58 93be
000002c0: 5989 8fbf 88ab e23f 2096 7f3c c9d2 53be
000002d0: 2153 2abf fb78 8dbe b57f 063e 49a1 37be
000002e0: faed 6d3c dd7d 1a3f ea0e 8cbf 4f70 3dbf
000002f0: 7f71 eebd 86aa 1ec0 07b2 953f 1a17 a33d
00000300: c941 db3c 2a92 8a3f 9287 0c3f f234 d63e
00000310: 1621 8a3e cc80 e33d 3300 00be 5362 d73e
00000320: 7f0e 6cbf 9502 853b 3235 34bf 7b0e dbbe
00000330: 63b6 0840 bb97 b13f 6084 62be b8be 9f3f
00000340: 8bc5 73be 301b dfbe a695 0040 b52a 3b3f
00000350: 0d8e 1ebf 40b5 89bf d338 b1bf 5182 12bf
00000360: 99b8 c5be 1c88 693f 924f 3ebd 95bf debe
00000370: 1825 ac3f e019 06bd 5e9f a5bd 1672 9ebf
00000380: d311 9ebf 36e3 273e c54b 1f3f f4a0 203f
00000390: 7255 26be d343 283e 1f6c 33bf cc58 80bf
000003a0: df46 8bbe a95f 1ebf a0f6 9ebe d2fc 1cbe
000003b0: fabb f03b 4674 693f ab2d 21bf 9ad3 f9bd
000003c0: 1050 56be 8ea7 c7be 9b96 6e3f 8e53 1cbf
000003d0: 6833 b8c0 49b6 0840 ce8e a0be 1516 6f3f
000003e0: 23a2 11c0 2877 553e cf90 97be 3827 c73e
000003f0: 42e8 1f3f a413 98c0 0096 203f 830e 793e
0.04381478 0.17262606 -0.4269935 -1.0254936 0.036114916 0.3509203 0.68130505 0.10366914
-0.7079227 0.19996288 -1.088796 -0.37586707 0.2723991 0.27115285 -0.5445555 0.6429963
-0.4156975 1.0104475 0.766557 -0.71923274 0.20192048 0.74229217 -0.74019337 -0.18850712
-1.0267428 -0.10197237 -1.4980803 0.09039264 -1.1494209 -0.50990736 0.48416853 -1.5128055
0.29523027 2.0016518 0.081558265 -1.7315315 0.91419756 0.6148996 -0.40611598 -0.7795609
-0.37318233 -0.8247191 1.3425328 -0.7289487 0.3026012 -0.6521602 -0.4698857 -1.7215946
-0.6482116 -0.7978476 0.22615053 -0.5930878 -0.26348704 0.11369167 1.1423483 0.8909591
0.2089257 -0.23919259 -0.42731836 1.0891061 0.7514649 0.7918464 -1.0641336 -3.4832366
-0.4238541 0.24932657 -1.067549 -1.0807973 0.23680669 0.36075574 -0.17352831 -0.094071366
0.4291646 -0.34892172 1.1470432 -1.5548841 0.8332129 0.6492078 -0.5375108 -1.2102311
0.07540319 0.63435125 0.38777542 -0.09905783 0.8770101 0.86877406 0.65695816 -0.18351947
-0.95706195 0.18623994 -0.51217425 -1.4520869 -1.5244132 0.5384204 2.3383331 0.95864373
0.5090604 0.9471611 1.2023643 -1.0628191 0.87794816 0.5838794 -0.1441698 0.5287267
-0.29900184 -1.2260625 0.456829 -1.1568723 0.15243624 -0.10390185 -1.1362025 0.13496709
0.117769666 -0.5550541 0.0053172945 -1.0823485 -0.9865453 0.20117831 -0.7375629 -0.062611684
-1.5865158 0.5194592 0.54446423 -0.4562127 0.2851502 -0.5699261 -0.7455481 0.6556862
-0.15863803 -0.34132123 -0.92883694 -1.5249107 1.1989816 -0.2772052 0.02385821 -0.10660619
-0.12183539 -0.4242343 -1.5494144 0.049060803 0.45990917 0.0017907755 0.024388565 -1.0229148
0.07178705 -1.0847989 -1.1713367 0.17901444 -0.49262032 0.24551263 0.5671761 1.1676859
0.94123214 0.14761674 -0.6469291 -0.29936692 0.57973355 -1.0086353 0.34290883 -0.5382123
-1.2680337 0.47360545 0.03574634 -1.8531735 -0.07515652 0.24677747 -0.38239035 0.32274202
0.6589955 -0.36834913 0.2049218 -0.011682702 -1.7702844 0.71805084 0.6281959 -0.28778493
-1.121379 1.7708597 0.015599757 -0.20685877 -0.66533095 -0.27631363 0.13134654 -0.17932619
0.01452207 0.603483 -1.0942051 -0.73999494 -0.116427414 -2.479158 1.1694955 0.07963391
0.026764767 1.0825856 0.54894364 0.4183727 0.26978368 0.111085504 -0.12500076 0.42067203
-0.9220962 0.0040591457 -0.7039367 -0.42784485 2.136132 1.387443 -0.2212081 1.2480078
-0.23805825 -0.4357543 2.0091338 0.7311204 -0.619355 -1.0758438 -1.3845466 -0.572301
-0.386174 0.9122331 -0.046462603 -0.4350554 1.344882 -0.03273952 -0.080870375 -1.2378566
-1.234919 0.16395268 0.6222499 0.62745595 -0.16243532 0.16432123 -0.70086855 -1.0027099
-0.27202508 -0.61864716 -0.31047535 -0.15330818 0.0073466273 0.91193044 -0.6296031 -0.12198563
-0.20928979 -0.38995022 0.93198556 -0.61064994 -5.756275 2.1361258 -0.3135895 0.9339307
-2.275521 0.20846236 -0.29602668 0.3889711 0.6246377 -4.7523975 0.6272888 0.24321942

layer_3.bias f4 [128]
00000000: 770f b9c0 82b2 44c0 3892 56c0 5e91 89c0
00000010: b2cc a2c0 2120 87c0 368d 3dc0 3694 3fc0
00000020: 07b8 a7c0 e6a3 8cc0 f446 88c0 f91b 8ac0
00000030: a725 9ec0 0073 9940 5dcd 9dc0 4040 82c0
00000040: fe0a a4c0 1e33 92c0 f4ff 03c0 b2cf adc0
00000050: 5b9b c3c0 f98f abc0 961e 88c0 c77e ee40
00000060: 79ea 92c0 74f9 63c0 7c12 2bc0 7d1b a8c0
00000070: ecb6 95c0 0901 97c0 f3a7 79c0 51f4 a9c0
00000080: dc5f a4c0 e467 a6c0 4eb2 b1c0 e018 8a40
00000090: 4d6b 8bc0 d550 49c0 407f 1741 ad01 39c0
000000a0: 21b3 97c0 e627 5c41 dfe2 1440 dc19 92c0
000000b0: 7e5d a9c0 d591 31c0 079e dcbe 20b2 cac0
000000c0: b57e 3ec0 fad3 87c0 7fe6 1ac0 963b c3be
000000d0: 2952 47c0 85a2 8ac0 2f80 7ac0 0d2b c1c0
000000e0: 5919 94c0 e6fd a3c0 c481 9fc0 2872 5cc0
000000f0: 7ea1 b9c0 40ab b3c0 9d64 debf 88ef 8f3f
00000100: d412 abbf e00e 71c0 e03e 96c0 92f4 a2c0
00000110: 9e0f 9cc0 4594 a5c0 b9ab 98c0 810c 97c0
00000120: 1fd1 21c1 e21f 85c0 b574 66c0 618a 6fc0
00000130: 76d4 21c0 07ed 88c0 96f6 bbc0 54c3 c4c0
00000140: 9dc7 a0c0 6f48 ddc0 285b a8c0 2367 6cc0
00000150: 00b4 9940 6b65 9ec0 cfb3 1fc0 daa3 a5c0
00000160: 64c4 61c0 f8a0 b3bf 8359 bfc0 fb09 353f
00000170: 613f 8c3f 2b4e aac0 66f8 1d41 dad4 34c1
00000180: 6d54 a1c0 2587 4dc0 524f 1ec0 d9c6 7dc0
00000190: 77b6 89c0 1acb 38c0 c01a a9c0 496c 31c0
000001a0: 2de2 75c0 d4a1 b5c0 17ea 0bc1 58db c6c0
000001b0: e14f b4c0 b077 93c0 7c94 16c0 f1ea 97c0
000001c0: 78ac b9c0 741f 1bc0 0e6f babf 1274 62c0
000001d0: 3cc1 9fc0 43d6 42c0 6bd6 a1c0 6a6e 9bc0
000001e0: 75fc 9ec0 18c0 fc3f 4881 abc0 0d62 81c0
000001f0: a341 19c0 c85a a1c0 3f5d 89bf 278d 89c0
-5.783138 -3.0733953 -3.3526745 -4.298995 -5.087487 -4.222672 -2.9617438 -2.993421
-5.2412143 -4.395007 -4.2586613 -4.3159146 -4.942096 4.795288 -4.9313188 -4.070343
-5.126342 -4.56874 -2.0624971 -5.4316034 -6.1127143 -5.361325 -4.2537336 7.4529757
-4.591122 -3.5621004 -2.6730032 -5.2533555 -4.6785793 -4.7188764 -3.9008758 -5.311074
-5.1367016 -5.200182 -5.5530157 4.3155365 -4.3568482 -3.1455586 9.468567 -2.8907273
-4.7406163 13.759741 2.326347 -4.5656567 -5.2926626 -2.774526 -0.43089315 -6.334244
-2.9764836 -4.244626 -2.4203184 -0.38131398 -3.1143897 -4.332339 -3.9140737 -6.036505
-4.628094 -5.1247435 -4.9845905 -3.4444675 -5.8009634 -5.6146545 -1.7374455 1.1244974
-1.3365121 -3.766533 -4.695175 -5.092355 -4.8769064 -5.1743493 -4.770962 -4.7202764
-10.113555 -4.160142 -3.6008732 -3.742821 -2.5285926 -4.278934 -5.873851 -6.148844
-5.024367 -6.915092 -5.2611275 -3.693795 4.8032227 -4.94988 -2.4953496 -5.1762514
-3.5276117 -1.4033499 -5.9796767 0.70718354 1.0956842 -5.322042 9.873144 -11.301966
-5.041556 -3.2113736 -2.4735913 -3.9652617 -4.3035235 -2.8873963 -5.2845154 -2.7722342
-3.8419297 -5.6760044 -8.744651 -6.2142754 -5.634751 -4.6083603 -2.3528128 -4.7474294
-5.8023033 -2.4237947 -1.4565141 -3.5383344 -4.992338 -3.0443275 -5.057424 -4.8572283
-4.9683175 1.9746122 -5.3595314 -4.043219 -2.3946311 -5.0423317 -1.0731581 -4.2984805

layer_4.weight f4 [1, 128]
00000000: 90a3 ae3d 16b5 f4bc af08 933c 688d a5bc
00000010: 8d90 c9bd dcd4 1bbd b1a7 59bd b760 3abc
00000020: 688f 203e d34f 673c c470 c43d 3fcb c8bd
00000030: cc57 76bc 8530 a1bb 0e15 c83b b6e6 123e
00000040: 7791 44bd cae1 903d 6336 e23d 03a8 863c
00000050: c89f 603d 078f 48bd e46b 1a3e 3f73 3ebc
00000060: a67b 07bc de19 f13c c8ce b63d edf7 71bd
00000070: 704f 063c 98d7 a43d 070e d239 5108 fb3b
00000080: 2cae d03c 11db 35bd 5185 cfbc dccd ed3d
00000090: 38e0 bd3c 68f9 ecba bf24 973d 1ad8 033d
000000a0: 8aed 1dbe bc76 aa3e aed1 163d f6ce ee3c
000000b0: d323 aa3c c66f ccbd 8e12 1f3b df03 c13d
000000c0: fc3b 60bd 717e 813c 8912 2cbd afbd 7f3e
000000d0: f829 eabb ce45 163c 7376 d0bc 8282 84bc
000000e0: 0f47 27bb 11e4 4c3c 53cb e2bb f33b 2d3e
000000f0: c035 d9bd c797 babd f755 49be 07f3 803d
00000100: 3cd8 81bd 2693 d6bd 8ffe 4fbd 1f83 01bd
00000110: 3d4a 4a3d 5117 26bd 8d35 91bd 8123 593c
00000120: bbd6 9fbd eb40 f5bb 501a a0bd d160 92bc
00000130: 286a 9c3a 047b 223b 1e00 453e b99d 9d3c
00000140: 0821 c3bd 1bc5 24bd b961 97bd 7c37 86bd
00000150: 947e 963d b53e 913b 14d7 673e 00b5 ff3c
00000160: c7a0 b6bd 2f3b 663c f751 3fbd 1071 6f3d
00000170: b684 bb3c 8a73 bc3c 319c 853e 394e 94be
00000180: ddb4 4ebd 88cc 16be b62b b5bd b404 f9bd
00000190: 2501 733e 33c1 7bb9 99b4 16be 7fb5 03be
000001a0: 5012 613c f860 173e 3322 fbbd 1cbf 4e3d
000001b0: bea6 24bd 1757 8ebd 857f fc3b d31b 4e3d
000001c0: e289 acbd 9634 5abd 9070 8b3d a94e 643e
000001d0: f0f3 85bc 8b02 bcbb d889 003e 272b 72bd
000001e0: a437 a1bd d721 8abd f7be 2bbd 01c1 2f3d
000001f0: ad12 073b 0ef6 95bd 15ef 48bc d0ea 4fbc
0.08527291 -0.029871505 0.017948477 -0.02020903 -0.09842024 -0.038044795 -0.05313844 -0.011375598
0.15679705 0.014118153 0.09591821 -0.09804391 -0.015035581 -0.004919114 0.0061060255 0.14345822
-0.04799029 0.07074316 0.1104553 0.016437536 0.05483988 -0.048964527 0.1508022 -0.0116241565
-0.008269226 0.02943128 0.08926159 -0.05907433 0.00819765 0.08048934 0.00040064772 0.0076609035
0.025473677 -0.04439837 -0.025332125 0.1161153 0.023178205 -0.00180797 0.07380056 0.032188512
-0.15422645 0.33293712 0.03682106 0.029151421 0.020769035 -0.099822566 0.0024272534 0.094245665
-0.054744706 0.015807362 -0.042009864 0.24974702 -0.0071461163 0.009171916 -0.025447106 -0.016175512
-0.0025524532 0.012505547 -0.006921211 0.169174 -0.10605955 -0.091109805 -0.19661699 0.06296354
-0.063400716 -0.10477285 -0.050779875 -0.031619187 0.049387205 -0.04054958 -0.07090292 0.013253094
-0.078046285 -0.0074845455 -0.07817519 -0.017868431 0.0011933492 0.0024792561 0.19238326 0.019240247
-0.095277846 -0.040227037 -0.07391686 -0.065535516 0.073483616 0.004432524 0.2264064 0.031214237
-0.089173846 0.014052196 -0.046709027 0.058457434 0.02289043 0.023004312 0.26095727 -0.2896593
-0.050465453 -0.1472646 -0.08846228 -0.121591 0.23730905 -0.00024009198 -0.1471733 -0.12862204
0.013737276 0.14783084 -0.12262382 0.050475225 -0.04019808 -0.06950205 0.007705631 0.050319504
-0.084247366 -0.053272806 0.06808579 0.22295631 -0.01635167 -0.005737608 0.12552583 -0.059123185
-0.07871941 -0.06744736 -0.041930165 0.042908672 0.0020610497 -0.07322322 -0.012264033 -0.012690261

exp_avg f4 [128, 13]
00000000: 92a0 5a39 8600 d237 fe5d a2b9 ba30 b3b9
00000010: f07f 80b9 1afe 92b9 2dc3 7ab9 105f b1b9
00000020: 46a6 92b9 cbd1 9cb9 b809 28b9 1e95 6db9
00000030: 41e9 95b9 34f8 8c3a 97ff d5bc cc32 b4bc
00000040: 27f9 bebc 69ab c0bc 20ab aebc df9a 49bc
00000050: 5a26 afbc 1bea c7bc 4d96 39ba 3a8b 3f3a
00000060: f17e 21bd 3d2d 3dbd 1842 5cb8 0c6a cc38
00000070: 5894 d239 542d c939 cff7 af39 7fbc bc39
00000080: e028 9839 5946 ca39 b64f c939 aea8 2e39
00000090: 9154 a839 e874 8c39 7d41 be39 392e 8cbc
000000a0: 1d7c 8dbb 12b2 ce3b 71c8 d43b 2c80 963b
000000b0: bbbf e93b feb3 e03b e3f6 e73b 72c2 a73b
000000c0: ca7d 513b f089 3a3c 5d30 183b 2459 763b
000000d0: 46ec 17bd 3e3d a2bb ba4f ed3b c0a8 093c
000000e0: f421 0a3c 1b90 283c 8ebf fc3b 4f65 023c
000000f0: cd64 063c c735 073c 4eca 93bc 3191 123c
00000100: 8571 283c 9baf b939 203e 1038 663b d0b8
00000110: a03b 03b9 d993 e6b8 d42a d5b8 3d9a 39b8
00000120: a486 f2b8 c132 ceb8 2ed7 eab9 0532 dfb8
00000130: 6dd1 24b9 60f9 44b9 a26a 14bb 18cf 32bc
00000140: e92d 7aba a496 793a 3ce7 3cb9 89f9 1fba
00000150: 84b6 28bb 78ef 5c39 11cc ebb9 5ee8 103c
00000160: bc92 293c a6e0 44ba cfa3 47b9 ccb0 ec3c
00000170: ea0d 9f3c 3e3d df3b fdf3 e43b cb7f 383c
00000180: 6ab9 493c 13d6 883c 9461 8a3b fccc 023c
00000190: fdd5 f93b b1b6 e33c e421 7b3b 9719 323c
000001a0: 440b 483b cc8f 1cbb 9f25 29bb 1a09 1abb
000001b0: d415 49bb c148 2cbb cb23 4fbb 88ad 0fbb
000001c0: e3ae 2dbb fbd8 453b b279 4c3a adb1 6bbb
000001d0: cf89 deba a590 643c b94d 843d 5a96 413d
000001e0: 9b39 283d 771c 863d 9d4b 4a3d d0fc 173d
000001f0: 9045 313d 5b22 4c3d f36d 123d 68df dc3c
00000200: 8a49 7e3d e3ee 583d 4dea 3dbd 35d7 73bd
00000210: d065 5dbd 00db 50bd 67ee 61bd d328 84bd
00000220: 38d9 8bbd 9e36 66bd 98f1 69bd 662f 57bd
00000230: dc33 3cbd 0a7f 48bd 9023 7fbd 4037 643c
00000240: 17a5 0e3c 81e7 273c 2b59 183c 94a7 0a3c
00000250: 2888 0f3c cd38 033c 129c 203c df98 153c
00000260: ff16 0f3c c834 d73b 1706 573c 6086 3c3c
00000270: 1d6c e1b9 98fe 1db9 31ea ec38 a319 c838
00000280: 5f7a 5438 14af d538 a2bb c1b7 df24 0c39
00000290: 3b2b c538 5566 4c3a ce52 8338 d102 b739
000002a0: e710 e339 609c 493c 1077 fe3b 6203 913c
000002b0: 66ae 853c ba06 2a3c 0c63 483c 8e82 9c3c
000002c0: 562c a63c 1a42 6d3c f8cb 223c 27e9 a03c
000002d0: f3c7 ab3b d595 2e3c 8336 d43b 5fe8 a6bb
000002e0: a9e1 25bb b60c 6fbb 518e 1bbc 9d50 75bb
000002f0: 1aa0 473b 1c4b 043b cb11 81bb 646a 283c
00000300: c3ba 8abb 7df2 d0bb 4023 f2bb a54e 003a
00000310: e826 4139 e148 53b9 8e4d 68b9 6031 15b9
00000320: 43b3 5ab9 ba27 8db9 293f 82b9 6cd7 56b9
00000330: f931 4639 b520 e438 2278 84b8 77cb 6db8
00000340: b3ba 4fbe c6d2 9abd 6702 a53d 3df2 ab3d
00000350: a3c1 a63c 3750 5c3d 97e6 693d 8df1 bf3d
00000360: 6e68 833d cc20 fd3c 2ca3 c83d f55e af3a
00000370: 0db9 3c3c a416 a1b9 7e0e 3239 8361 aa39
00000380: ba04 9a39 7e05 9d39 3265 af39 1b72 9839
00000390: fa9d a739 c839 ab39 af24 d839 647f 3c39
000003a0: de18 133a 5a4e 1d3a 2204 98b9 f586 7837
000003b0: 5c7e bcb8 21a7 ccb8 af42 02b8 9136 c4b8
000003c0: 06aa 22b9 96c4 bdb8 7336 a3b8 c3fb bc39
000003d0: e388 5639 38ff 8839 7384 9539 e268 0c3e
000003e0: 8db1 bfbc 38d4 84bd 7217 64bd 4c8e 9dbd
000003f0: 5317 9abd 3299 37bd 4b2c 85bd fce4 85bd
0.00020849917 2.5034195e-05 -0.00030969077 -0.00034177845 -0.00024509383 -0.0002803661 -0.00023914567 -0.00033830898
-0.00027971173 -0.00029910947 -0.00016025349 -0.00022657632 -0.00028593282 0.0010755123 -0.026122851 -0.021996878
-0.023312164 -0.023519235 -0.021321833 -0.012304991 -0.021380592 -0.024403622 -0.00070795865 0.0007306818
-0.0394277 -0.04618572 -5.2513642e-05 9.747231e-05 0.00040164846 0.0003837148 0.00033563233 0.00035998595
0.00029022153 0.00038580855 0.00038397097 0.00016656771 0.00032106464 0.00026789983 0.00036288417 -0.017111884
-0.004317774 0.0063078487 0.006493621 0.004592916 0.0071334518 0.0068573942 0.0070789917 0.0051196152
0.0031965845 0.011385426 0.0023222186 0.0037589753 -0.037090562 -0.0049511483 0.00724217 0.00840205
0.008430947 0.010288264 0.007713265 0.007958724 0.008202744 0.008252568 -0.018040802 0.008945749
0.010280971 0.00035416786 3.4390134e-05 -9.929277e-05 -0.00012515346 -0.000109947934 -0.00010164609 -4.4251083e-05
-0.00011564538 -9.832299e-05 -0.0004479228 -0.000106427855 -0.00015718276 -0.00018784916 -0.0022646566 -0.010913633
-0.00095435843 0.00095210434 -0.00018015219 -0.0006102552 -0.0025743553 0.00021070044 -0.00044974734 0.008844463
0.010349926 -0.0007510282 -0.00019039142 0.028892897 0.019415814 0.0068127206 0.0069870935 0.011260937
0.012312273 0.016703641 0.004223058 0.007983442 0.0076243863 0.027797075 0.003831976 0.010870359
0.0030524293 -0.002388942 -0.0025809777 -0.002350396 -0.0030683177 -0.0026288482 -0.0031607028 -0.00219235
-0.0026501946 0.0030189145 0.00078001164 -0.0035964057 -0.0016978326 0.013950502 0.06460137 0.047262527
0.04107056 0.06548398 0.049388517 0.037106335 0.04327923 0.04983745 0.035749387 0.026961997
0.06208185 0.052962195 -0.046366025 -0.05953141 -0.054052174 -0.050990105 -0.055159 -0.06453099
-0.068285406 -0.05620443 -0.057115167 -0.052535437 -0.045947894 -0.04894928 -0.062289774 0.013929188
0.008706353 0.010248066 0.009298603 0.008462805 0.0087604895 0.008009148 0.009802835 0.009130686
0.00873351 0.0065675713 0.0131240105 0.011506647 -0.00042995895 -0.0001506753 0.000112969785 9.5415184e-05
5.0658706e-05 0.00010189242 -2.3094766e-05 0.00013365176 9.401744e-05 0.0007797231 6.26199e-05 0.00034906578
0.00043309407 0.012305349 0.007765658 0.017701808 0.016318511 0.01037758 0.012230646 0.019105222
0.020284813 0.014481092 0.009936325 0.019642426 0.0052423417 0.01065584 0.006476225 -0.0050936188
-0.0025311506 -0.0036476082 -0.00949438 -0.0037432082 0.0030460418 0.002018637 -0.0039388887 0.010279272
-0.0042336895 -0.006376563 -0.007389456 0.00048945314 0.00018420408 -0.00020149678 -0.00022154136 -0.00014228141
-0.0002085688 -0.00026923214 -0.0002484259 -0.00020488881 0.00018901368 0.000108779794 -6.316627e-05 -5.6694695e-05
-0.20286064 -0.07559733 0.08057099 0.08395813 0.020356005 0.053787436 0.057104673 0.09372244
0.06416403 0.030899428 0.097967476 0.001337974 0.011518729 -0.00030725182 0.00016980802 0.0003249758
0.0002937669 0.00029949466 0.00033453997 0.00029076714 0.00031970424 0.00032658712 0.00041226062 0.00017976534
0.00056113105 0.000600075 -0.00028994778 1.4813374e-05 -8.988075e-05 -9.758608e-05 -3.105652e-05 -9.356172e-05
-0.00015512863 -9.048839e-05 -7.7825876e-05 0.0003604573 0.00020459625 0.00026130094 0.00028518177 0.13711885
-0.023400092 -0.0648579 -0.05568642 -0.076931566 -0.0752398 -0.044823833 -0.06502589 -0.06537816

exp_avg_sq f4 [128, 13]
00000000: 597d 1238 8af2 2837 5b1d 2b38 f357 3338
00000010: 7932 e737 8944 0e38 03e4 eb37 29a9 3838
00000020: 0523 1b38 5626 ac37 f908 2738 3ad6 dc37
00000030: ad5a de37 ce26 133d f792 0e3d 0258 aa3c
00000040: 8c09 983c efd1 f23c 51c2 de3c b955 e23c
00000050: f59b 963c abc5 bb3c 5d3f 253d 386a 713b
00000060: f2e0 073d f85e 243d d354 3338 bf57 2237
00000070: a771 a337 dab3 9f37 36af 2c37 5de7 8f37
00000080: 0d27 5e37 ce9c b737 11f7 9237 2b40 6f37
00000090: 3838 1237 0dc1 1f37 414a 8b37 2f56 3a3c
000000a0: da57 b23a 1be7 803b 9ccc 893b adbe 823b
000000b0: 07d2 843b 06ab 423b 0e14 7c3b 03fe 7b3b
000000c0: 7dfa bf3b d7e9 673b 038f ed3b 75a5 163c
000000d0: 2ed0 7e3d 59f8 9e3c 5f32 c43c 3c31 e33c
000000e0: 7ade 803c ad1d 893c ce1a 293c a341 f43c
000000f0: 38b2 a93c 4304 223d 5176 9a3c e103 eb3c
00000100: 00b7 063d 559d 353a 7941 cf39 73fe 313a
00000110: 85b5 1e3a 3025 143a aaef 2d3a 1b7f d439
00000120: f799 2e3a 7e1a 203a 4b30 593a 97f0 0e3a
00000130: b132 1a3a 0ad5 603a d634 c93b eb97 c33b
00000140: c2e0 9d3c e4c1 973c 6840 793c 80e3 923c
00000150: 122a a43c cf0b 9b3c 46e1 953c 18c6 063b
00000160: ba0b 053c 8302 263c 03a0 023c 801f 423b
00000170: ed98 913b 38d1 343b fc61 1e3b 6d9d 753b
00000180: f874 4d3b ecb1 5f3b 4637 163b 483f 443b
00000190: 4af1 cf3a 069f ce3a df1a b33b 8f25 783b
000001a0: ebb7 c93a f760 8e39 1364 0a3a f324 243a
000001b0: 40a7 9e39 c27b b039 a398 8b39 891a 293a
000001c0: 5fc2 f039 4212 1b3a b068 4339 10c4 713a
000001d0: 7cb9 833a c338 1f3e 2bf8 ea3c 41d9 273e
000001e0: 4808 2d3e 47a3 0f3e 91d8 1c3e 01de 0c3e
000001f0: fb0a 203e a4b6 283e f9c0 3e3d dad4 313d
00000200: 238c 3c3e c85f 423e bfa3 843f 0b24 033e
00000210: 4edf 813e 156c 903e fe1d 1f3e 5603 643e
00000220: 0ebf 043e f038 9b3e 58a5 683e 7c00 e03e
00000230: 1435 7a3c 9e7d 973e 36ba e23e 0f47 2c3c
00000240: 6aad 2a3c 6309 9b3c 91f2 9a3c 4ad0 753c
00000250: d3d7 8e3c 8499 a53c abf1 a03c 25ee 983c
00000260: 6e31 813b 5993 9e3c aedc 9f3c 2450 543c
00000270: ec19 af38 c315 c237 e9e9 cf38 d62c da38
00000280: ed69 9638 e1f0 aa38 0f93 9638 efd2 dd38
00000290: dd76 c138 579c 1338 0d12 9138 1d00 4238
000002a0: 8567 6a38 6320 c13d 2a42 2a3c 7c3d 4f3d
000002b0: 5804 5d3d ba4e 593d 0dd3 473d 75f2 f13c
000002c0: c8a4 3b3d f6fa 5b3d 7d5c 1d3d 2276 e93c
000002d0: 0414 f23d 23f0 093e 36cc 933d 7a36 cc3b
000002e0: 0e41 ef3c 3ed0 033d eb3c 073d 0a9d f03c
000002f0: 385b 743c b70a c83c 32ff 093d 4380 dd3c
00000300: 79aa e83b 84bd a63d 82a0 c03d 0b11 3838
00000310: 5be1 9d37 12cd 1a38 2153 2138 abf2 0138
00000320: e456 1138 189a dc37 d73e 2438 5a10 1238
00000330: 1059 fd37 482f 3f38 07cc 2238 15ec 2338
00000340: 52d0 493f e719 a23e 4c2a d53e e9cf ee3e
00000350: 73eb 5d3e 2361 863e 6892 633e f44c 073f
00000360: 3d8c ab3e 0fbf f23e 218e c73e 0d08 b33e
00000370: 2b85 c23e 2381 be38 3f51 7138 d309 b938
00000380: bb46 bf38 3d9f 8938 2af2 a038 415f 3e38
00000390: b6e1 c638 5d8e aa38 bac9 6838 d029 c738
000003a0: 0cf3 8d38 03c3 c238 07de 8438 8863 0d39
000003b0: 115f 0239 abe5 f938 0524 1839 4e44 0a39
000003c0: 77eb ff38 7483 e938 2ff0 0739 8670 8a38
000003d0: dba0 0b39 f959 c438 e979 be38 efe4 ec3e
000003e0: 7a45 da3d f0ff 0b3e a587 103e d648 ba3d
000003f0: 5e13 063e 1012 c13d 1ac0 203e 77d9 fb3d
3.492585e-05 1.0070051e-05 4.0796916e-05 4.2758835e-05 2.7560849e-05 3.3919267e-05 2.812036e-05 4.402656e-05
3.6987494e-05 2.052185e-05 3.982426e-05 2.63258e-05 2.6506686e-05 0.03592568 0.034808125 0.020793919
0.01855924 0.02964112 0.027192267 0.027628766 0.018384913 0.022921404 0.04034363 0.0036836993
0.03317351 0.04012963 4.2755924e-05 9.676382e-06 1.9484038e-05 1.9038027e-05 1.0292793e-05 1.7154665e-05
1.3241323e-05 2.1888318e-05 1.7519606e-05 1.426045e-05 8.715368e-06 9.522087e-06 1.6604668e-05 0.011373087
0.0013606504 0.0039338 0.0042052995 0.0039900155 0.0040533575 0.0029703989 0.0038464102 0.0038450963
0.005858718 0.0035387182 0.0072497143 0.0091947215 0.062210254 0.01940553 0.0239498 0.027733438
0.015731085 0.016737783 0.010321332 0.029816454 0.020714864 0.039554846 0.018855246 0.028688373
0.032889366 0.00069280464 0.00039530898 0.000678993 0.000605427 0.00056512933 0.0006635139 0.00040530492
0.0006660516 0.0006107463 0.0008285089 0.0005452721 0.00058821874 0.0008576667 0.0061403317 0.005969038
0.019272212 0.018525071 0.01521311 0.017930746 0.020039592 0.01892653 0.018295895 0.002056485
0.008120472 0.010132435 0.00797272 0.0029620826 0.004443279 0.0027590524 0.002416729 0.0037477866
0.0031350236 0.003413315 0.002292113 0.0029944945 0.0015864756 0.0015763945 0.00546585 0.0037864184
0.0015389895 0.00027156595 0.00052791944 0.00062616094 0.0003026072 0.00033661543 0.0002662587 0.00064507924
0.00045921185 0.00059155014 0.00018635648 0.0009222636 0.0010049785 0.15548997 0.028682789 0.1639147
0.1689769 0.14027129 0.15316989 0.13756563 0.15629189 0.16475922 0.04657075 0.04341588
0.18412833 0.1898185 1.0362471 0.12806718 0.2536568 0.2820746 0.15538785 0.22266898
0.12963507 0.30316877 0.22719324 0.4375037 0.015271444 0.29588026 0.44282693 0.010514989
0.010417322 0.018925374 0.018914493 0.015003273 0.017436897 0.020214804 0.019646486 0.018668244
0.00394266 0.01935737 0.019514408 0.01295856 8.3494786e-05 2.3136736e-05 9.914098e-05 0.000104034014
7.1722876e-05 8.151099e-05 7.179949e-05 0.00010577391 9.225097e-05 3.5193134e-05 6.917501e-05 4.625331e-05
5.5886358e-05 0.094300054 0.010391751 0.050595745 0.05395922 0.053053595 0.048785258 0.029534558
0.045811445 0.053706132 0.03841828 0.028498713 0.11820224 0.13470511 0.072166845 0.00623208
0.029205825 0.032181017 0.03301708 0.029371757 0.014914326 0.024419172 0.03369064 0.027038699
0.0071004 0.08141616 0.094056144 4.388489e-05 1.8820798e-05 3.6907448e-05 3.846281e-05 3.0982e-05
3.4651617e-05 2.62978e-05 3.915917e-05 3.482434e-05 3.0201423e-05 4.5581983e-05 3.8813825e-05 3.9082097e-05
0.78833497 0.31660387 0.41633832 0.46642998 0.21671848 0.26245984 0.22223818 0.52851796
0.3350543 0.4741139 0.38975623 0.3496708 0.37992224 9.0839596e-05 5.7534544e-05 8.823317e-05
9.120764e-05 6.5623295e-05 7.674501e-05 4.5388242e-05 9.483418e-05 8.132749e-05 5.5500983e-05 9.4968476e-05
6.768675e-05 9.2869646e-05 6.335606e-05 0.00013483886 0.00012433181 0.00011916024 0.00014509268 0.00013186151
0.00012203206 0.00011134791 0.00012964079 6.601312e-05 0.00013315996 9.362767e-05 9.0826135e-05 0.46268412
0.10657783 0.13671851 0.14114244 0.090959236 0.13093325 0.09427273 0.15698281 0.122973375

exp_avg f4 [128]
00000000: 40e9 2ab9 9ab4 6cbc 45c2 69b9 8da8 463c
00000010: 3820 823c 8f8a a5b9 0779 ac3b 8a32 6dbc
00000020: 14a0 36bb ee2b 8dbc e0ad ec3c ed5e 8cb9
00000030: c75f 203a 3857 a43a d7b4 2cbc e9b2 cd39
00000040: 2852 7a3c 6a99 a639 5670 1d3a 0a6d ddbd
00000050: 9605 3bba 7e01 db3c 9baf a2b7 0303 e13d
00000060: ea18 5838 ca8f 03bc 44e7 17bd d411 ff39
00000070: d1e5 8339 c900 263a 05cd 0ab9 9455 4439
00000080: 3f72 7bbe 4595 5d3c 9353 3e3e d186 103a
00000090: d2aa 563a e97e 8539 757b aa39 6e49 3139
000000a0: 89be 8fbd 654c c1bb cd4e cb39 0e9a 3d3a
000000b0: 4779 3f3c 317f 1a3a f7ac 9b3b acdf 933d
000000c0: cd52 56bc f406 c9bd a4cd 0cb5 c7f4 1f3e
000000d0: 6bb3 cc38 d37e 9fb9 6849 49bb 2607 6f37
000000e0: a00f 023a 635f 4b39 0aaa fd39 2339 c13d
000000f0: 5d36 38bb 3831 92ba 2302 97bc 6637 253a
00000100: b846 5139 af7a 83bd 292b 0938 c718 ec3c
00000110: f1ee 413d d5d8 46ba bd13 d63c 8b5e da39
00000120: 2bb2 fc39 6446 a9b8 9b46 fdb9 2b4d e8ba
00000130: 0420 8539 5f56 a03a 47d1 9b3b 2751 613a
00000140: 68a5 d939 9b39 6139 1aad 4839 0109 c7bb
00000150: f580 25be 1a2e 4238 97cc 323b eeaf b3bc
00000160: 753c 9539 0cda f7bd ad78 d3bd 7770 8dbc
00000170: b6ee c33c 792d 8cbb 1383 67ba bad5 733d
00000180: a8cb 6fbc 6d9f 54b8 cd3b c33b b86a 8038
00000190: bb7b 433e 1e45 77bd f528 603a 9ee3 923d
000001a0: 96f5 273a 0503 9939 b7d1 063a 3c38 84b9
000001b0: c6dc 1c3c 56f7 b63d 0bb0 d238 ff25 a139
000001c0: 3632 193a 00ac ee39 6eec d339 34b5 18bd
000001d0: 8726 c535 a0b8 0b3a 99dc bf38 e098 683c
000001e0: 0834 4d3d 2ee2 9039 e15a d6bc 9dc5 443e
000001f0: 3023 203a 7633 033a 1278 0c3a 3728 263a
-0.00016299356 -0.014447356 -0.00022292983 0.012125147 0.015884504 -0.00031574487 0.005263451 -0.0144773815
-0.002786641 -0.017232861 0.028891504 -0.00026773606 0.00061177876 0.00125382 -0.010541162 0.00039233945
0.015278377 0.0003177629 0.0006005814 -0.10811813 -0.0007134316 0.02673411 -1.9393678e-05 0.109869026
5.1521616e-05 -0.008029887 -0.037085786 0.00048650673 0.00025157494 0.00063325145 -0.00013237081 0.00018723897
-0.245553 0.013524358 0.18586569 0.0005513253 0.00081889064 0.00025462292 0.0003251691 0.0001690739
-0.070187636 -0.0058989995 0.00038777888 0.0007232734 0.01168663 0.0005893587 0.0047508436 0.072203964
-0.013081265 -0.09815779 -5.245331e-07 0.15620719 9.760897e-05 -0.00030421335 -0.003071392 1.42471745e-05
0.0004961435 0.00019395123 0.0004838261 0.09434726 -0.0028108575 -0.0011153584 -0.018433636 0.00063025055
0.00019958138 -0.064198844 3.270354e-05 0.028820409 0.047347013 -0.0007585411 0.026132459 0.0004165064
0.0004819793 -8.071659e-05 -0.00048308526 -0.0017723193 0.0002539159 0.0012232772 0.0047551724 0.00085951615
0.00041512703 0.00021479132 0.00019137972 -0.0060740714 -0.16162474 4.629614e-05 0.002728259 -0.021934476
0.0002846454 -0.12102136 -0.103257515 -0.017265541 0.023917537 -0.0042778817 -0.0008831482 0.059529997
-0.014635958 -5.0693216e-05 0.0059580565 6.1233935e-05 0.19090168 -0.06036865 0.0008551025 0.07172321
0.00064071396 0.00029184684 0.0005142944 -0.000252189 0.009574121 0.08933894 0.00010046371 0.00030736622
0.0005843969 0.00045523047 0.0004042121 -0.037282184 1.4688857e-06 0.00053299405 9.148679e-05 0.0141966045
0.05009845 0.00027634337 -0.026166381 0.19216008 0.0006108759 0.00050049217 0.0005358468 0.000633839
